node {
  name: "global_step/Initializer/zeros"
  op: "Const"
  attr {
    key: "_class"
    value {
      list {
        s: "loc:@global_step"
      }
    }
  }
  attr {
    key: "_output_shapes"
    value {
      list {
        shape {
        }
      }
    }
  }
  attr {
    key: "dtype"
    value {
      type: DT_INT64
    }
  }
  attr {
    key: "value"
    value {
      tensor {
        dtype: DT_INT64
        tensor_shape {
        }
        int64_val: 0
      }
    }
  }
}
node {
  name: "global_step"
  op: "VariableV2"
  attr {
    key: "_class"
    value {
      list {
        s: "loc:@global_step"
      }
    }
  }
  attr {
    key: "_output_shapes"
    value {
      list {
        shape {
        }
      }
    }
  }
  attr {
    key: "container"
    value {
      s: ""
    }
  }
  attr {
    key: "dtype"
    value {
      type: DT_INT64
    }
  }
  attr {
    key: "shape"
    value {
      shape {
      }
    }
  }
  attr {
    key: "shared_name"
    value {
      s: ""
    }
  }
}
node {
  name: "global_step/Assign"
  op: "Assign"
  input: "global_step"
  input: "global_step/Initializer/zeros"
  attr {
    key: "T"
    value {
      type: DT_INT64
    }
  }
  attr {
    key: "_class"
    value {
      list {
        s: "loc:@global_step"
      }
    }
  }
  attr {
    key: "_output_shapes"
    value {
      list {
        shape {
        }
      }
    }
  }
  attr {
    key: "use_locking"
    value {
      b: true
    }
  }
  attr {
    key: "validate_shape"
    value {
      b: true
    }
  }
}
node {
  name: "global_step/read"
  op: "Identity"
  input: "global_step"
  attr {
    key: "T"
    value {
      type: DT_INT64
    }
  }
  attr {
    key: "_class"
    value {
      list {
        s: "loc:@global_step"
      }
    }
  }
  attr {
    key: "_output_shapes"
    value {
      list {
        shape {
        }
      }
    }
  }
}
node {
  name: "global_step/IsVariableInitialized"
  op: "IsVariableInitialized"
  input: "global_step"
  attr {
    key: "_class"
    value {
      list {
        s: "loc:@global_step"
      }
    }
  }
  attr {
    key: "_output_shapes"
    value {
      list {
        shape {
        }
      }
    }
  }
  attr {
    key: "dtype"
    value {
      type: DT_INT64
    }
  }
}
node {
  name: "global_step/cond/Switch"
  op: "Switch"
  input: "global_step/IsVariableInitialized"
  input: "global_step/IsVariableInitialized"
  attr {
    key: "T"
    value {
      type: DT_BOOL
    }
  }
  attr {
    key: "_output_shapes"
    value {
      list {
        shape {
        }
        shape {
        }
      }
    }
  }
}
node {
  name: "global_step/cond/switch_t"
  op: "Identity"
  input: "global_step/cond/Switch:1"
  attr {
    key: "T"
    value {
      type: DT_BOOL
    }
  }
  attr {
    key: "_output_shapes"
    value {
      list {
        shape {
        }
      }
    }
  }
}
node {
  name: "global_step/cond/switch_f"
  op: "Identity"
  input: "global_step/cond/Switch"
  attr {
    key: "T"
    value {
      type: DT_BOOL
    }
  }
  attr {
    key: "_output_shapes"
    value {
      list {
        shape {
        }
      }
    }
  }
}
node {
  name: "global_step/cond/pred_id"
  op: "Identity"
  input: "global_step/IsVariableInitialized"
  attr {
    key: "T"
    value {
      type: DT_BOOL
    }
  }
  attr {
    key: "_output_shapes"
    value {
      list {
        shape {
        }
      }
    }
  }
}
node {
  name: "global_step/cond/read"
  op: "Identity"
  input: "global_step/cond/read/Switch:1"
  attr {
    key: "T"
    value {
      type: DT_INT64
    }
  }
  attr {
    key: "_output_shapes"
    value {
      list {
        shape {
        }
      }
    }
  }
}
node {
  name: "global_step/cond/read/Switch"
  op: "RefSwitch"
  input: "global_step"
  input: "global_step/cond/pred_id"
  attr {
    key: "T"
    value {
      type: DT_INT64
    }
  }
  attr {
    key: "_class"
    value {
      list {
        s: "loc:@global_step"
      }
    }
  }
  attr {
    key: "_output_shapes"
    value {
      list {
        shape {
        }
        shape {
        }
      }
    }
  }
}
node {
  name: "global_step/cond/Switch_1"
  op: "Switch"
  input: "global_step/Initializer/zeros"
  input: "global_step/cond/pred_id"
  attr {
    key: "T"
    value {
      type: DT_INT64
    }
  }
  attr {
    key: "_class"
    value {
      list {
        s: "loc:@global_step"
      }
    }
  }
  attr {
    key: "_output_shapes"
    value {
      list {
        shape {
        }
        shape {
        }
      }
    }
  }
}
node {
  name: "global_step/cond/Merge"
  op: "Merge"
  input: "global_step/cond/Switch_1"
  input: "global_step/cond/read"
  attr {
    key: "N"
    value {
      i: 2
    }
  }
  attr {
    key: "T"
    value {
      type: DT_INT64
    }
  }
  attr {
    key: "_output_shapes"
    value {
      list {
        shape {
        }
        shape {
        }
      }
    }
  }
}
node {
  name: "global_step/add/y"
  op: "Const"
  attr {
    key: "_output_shapes"
    value {
      list {
        shape {
        }
      }
    }
  }
  attr {
    key: "dtype"
    value {
      type: DT_INT64
    }
  }
  attr {
    key: "value"
    value {
      tensor {
        dtype: DT_INT64
        tensor_shape {
        }
        int64_val: 0
      }
    }
  }
}
node {
  name: "global_step/add"
  op: "Add"
  input: "global_step/cond/Merge"
  input: "global_step/add/y"
  attr {
    key: "T"
    value {
      type: DT_INT64
    }
  }
  attr {
    key: "_output_shapes"
    value {
      list {
        shape {
        }
      }
    }
  }
}
node {
  name: "filenames"
  op: "Const"
  device: "/device:CPU:0"
  attr {
    key: "_output_shapes"
    value {
      list {
        shape {
        }
      }
    }
  }
  attr {
    key: "dtype"
    value {
      type: DT_STRING
    }
  }
  attr {
    key: "value"
    value {
      tensor {
        dtype: DT_STRING
        tensor_shape {
        }
        string_val: "data/train-images-idx3-ubyte"
      }
    }
  }
}
node {
  name: "record_bytes"
  op: "Const"
  device: "/device:CPU:0"
  attr {
    key: "_output_shapes"
    value {
      list {
        shape {
        }
      }
    }
  }
  attr {
    key: "dtype"
    value {
      type: DT_INT64
    }
  }
  attr {
    key: "value"
    value {
      tensor {
        dtype: DT_INT64
        tensor_shape {
        }
        int64_val: 784
      }
    }
  }
}
node {
  name: "header_bytes"
  op: "Const"
  device: "/device:CPU:0"
  attr {
    key: "_output_shapes"
    value {
      list {
        shape {
        }
      }
    }
  }
  attr {
    key: "dtype"
    value {
      type: DT_INT64
    }
  }
  attr {
    key: "value"
    value {
      tensor {
        dtype: DT_INT64
        tensor_shape {
        }
        int64_val: 16
      }
    }
  }
}
node {
  name: "footer_bytes"
  op: "Const"
  device: "/device:CPU:0"
  attr {
    key: "_output_shapes"
    value {
      list {
        shape {
        }
      }
    }
  }
  attr {
    key: "dtype"
    value {
      type: DT_INT64
    }
  }
  attr {
    key: "value"
    value {
      tensor {
        dtype: DT_INT64
        tensor_shape {
        }
        int64_val: 0
      }
    }
  }
}
node {
  name: "buffer_size"
  op: "Const"
  device: "/device:CPU:0"
  attr {
    key: "_output_shapes"
    value {
      list {
        shape {
        }
      }
    }
  }
  attr {
    key: "dtype"
    value {
      type: DT_INT64
    }
  }
  attr {
    key: "value"
    value {
      tensor {
        dtype: DT_INT64
        tensor_shape {
        }
        int64_val: 262144
      }
    }
  }
}
node {
  name: "filenames_1"
  op: "Const"
  device: "/device:CPU:0"
  attr {
    key: "_output_shapes"
    value {
      list {
        shape {
        }
      }
    }
  }
  attr {
    key: "dtype"
    value {
      type: DT_STRING
    }
  }
  attr {
    key: "value"
    value {
      tensor {
        dtype: DT_STRING
        tensor_shape {
        }
        string_val: "data/train-labels-idx1-ubyte"
      }
    }
  }
}
node {
  name: "record_bytes_1"
  op: "Const"
  device: "/device:CPU:0"
  attr {
    key: "_output_shapes"
    value {
      list {
        shape {
        }
      }
    }
  }
  attr {
    key: "dtype"
    value {
      type: DT_INT64
    }
  }
  attr {
    key: "value"
    value {
      tensor {
        dtype: DT_INT64
        tensor_shape {
        }
        int64_val: 1
      }
    }
  }
}
node {
  name: "header_bytes_1"
  op: "Const"
  device: "/device:CPU:0"
  attr {
    key: "_output_shapes"
    value {
      list {
        shape {
        }
      }
    }
  }
  attr {
    key: "dtype"
    value {
      type: DT_INT64
    }
  }
  attr {
    key: "value"
    value {
      tensor {
        dtype: DT_INT64
        tensor_shape {
        }
        int64_val: 8
      }
    }
  }
}
node {
  name: "footer_bytes_1"
  op: "Const"
  device: "/device:CPU:0"
  attr {
    key: "_output_shapes"
    value {
      list {
        shape {
        }
      }
    }
  }
  attr {
    key: "dtype"
    value {
      type: DT_INT64
    }
  }
  attr {
    key: "value"
    value {
      tensor {
        dtype: DT_INT64
        tensor_shape {
        }
        int64_val: 0
      }
    }
  }
}
node {
  name: "buffer_size_1"
  op: "Const"
  device: "/device:CPU:0"
  attr {
    key: "_output_shapes"
    value {
      list {
        shape {
        }
      }
    }
  }
  attr {
    key: "dtype"
    value {
      type: DT_INT64
    }
  }
  attr {
    key: "value"
    value {
      tensor {
        dtype: DT_INT64
        tensor_shape {
        }
        int64_val: 262144
      }
    }
  }
}
node {
  name: "buffer_size_2"
  op: "Const"
  device: "/device:CPU:0"
  attr {
    key: "_output_shapes"
    value {
      list {
        shape {
        }
      }
    }
  }
  attr {
    key: "dtype"
    value {
      type: DT_INT64
    }
  }
  attr {
    key: "value"
    value {
      tensor {
        dtype: DT_INT64
        tensor_shape {
        }
        int64_val: 50000
      }
    }
  }
}
node {
  name: "seed"
  op: "Const"
  device: "/device:CPU:0"
  attr {
    key: "_output_shapes"
    value {
      list {
        shape {
        }
      }
    }
  }
  attr {
    key: "dtype"
    value {
      type: DT_INT64
    }
  }
  attr {
    key: "value"
    value {
      tensor {
        dtype: DT_INT64
        tensor_shape {
        }
        int64_val: 100
      }
    }
  }
}
node {
  name: "seed2/Const"
  op: "Const"
  device: "/device:CPU:0"
  attr {
    key: "_output_shapes"
    value {
      list {
        shape {
        }
      }
    }
  }
  attr {
    key: "dtype"
    value {
      type: DT_INT64
    }
  }
  attr {
    key: "value"
    value {
      tensor {
        dtype: DT_INT64
        tensor_shape {
        }
        int64_val: 26
      }
    }
  }
}
node {
  name: "seed2/Equal/y"
  op: "Const"
  device: "/device:CPU:0"
  attr {
    key: "_output_shapes"
    value {
      list {
        shape {
        }
      }
    }
  }
  attr {
    key: "dtype"
    value {
      type: DT_INT64
    }
  }
  attr {
    key: "value"
    value {
      tensor {
        dtype: DT_INT64
        tensor_shape {
        }
        int64_val: 0
      }
    }
  }
}
node {
  name: "seed2/Equal"
  op: "Equal"
  input: "seed"
  input: "seed2/Equal/y"
  device: "/device:CPU:0"
  attr {
    key: "T"
    value {
      type: DT_INT64
    }
  }
  attr {
    key: "_output_shapes"
    value {
      list {
        shape {
        }
      }
    }
  }
}
node {
  name: "seed2/Equal_1/y"
  op: "Const"
  device: "/device:CPU:0"
  attr {
    key: "_output_shapes"
    value {
      list {
        shape {
        }
      }
    }
  }
  attr {
    key: "dtype"
    value {
      type: DT_INT64
    }
  }
  attr {
    key: "value"
    value {
      tensor {
        dtype: DT_INT64
        tensor_shape {
        }
        int64_val: 0
      }
    }
  }
}
node {
  name: "seed2/Equal_1"
  op: "Equal"
  input: "seed2/Const"
  input: "seed2/Equal_1/y"
  device: "/device:CPU:0"
  attr {
    key: "T"
    value {
      type: DT_INT64
    }
  }
  attr {
    key: "_output_shapes"
    value {
      list {
        shape {
        }
      }
    }
  }
}
node {
  name: "seed2/LogicalAnd"
  op: "LogicalAnd"
  input: "seed2/Equal"
  input: "seed2/Equal_1"
  device: "/device:CPU:0"
  attr {
    key: "_output_shapes"
    value {
      list {
        shape {
        }
      }
    }
  }
}
node {
  name: "seed2/Const_1"
  op: "Const"
  device: "/device:CPU:0"
  attr {
    key: "_output_shapes"
    value {
      list {
        shape {
        }
      }
    }
  }
  attr {
    key: "dtype"
    value {
      type: DT_INT64
    }
  }
  attr {
    key: "value"
    value {
      tensor {
        dtype: DT_INT64
        tensor_shape {
        }
        int64_val: 2147483647
      }
    }
  }
}
node {
  name: "seed2"
  op: "Select"
  input: "seed2/LogicalAnd"
  input: "seed2/Const_1"
  input: "seed2/Const"
  device: "/device:CPU:0"
  attr {
    key: "T"
    value {
      type: DT_INT64
    }
  }
  attr {
    key: "_output_shapes"
    value {
      list {
        shape {
        }
      }
    }
  }
}
node {
  name: "count"
  op: "Const"
  device: "/device:CPU:0"
  attr {
    key: "_output_shapes"
    value {
      list {
        shape {
        }
      }
    }
  }
  attr {
    key: "dtype"
    value {
      type: DT_INT64
    }
  }
  attr {
    key: "value"
    value {
      tensor {
        dtype: DT_INT64
        tensor_shape {
        }
        int64_val: 20
      }
    }
  }
}
node {
  name: "batch_size"
  op: "Const"
  device: "/device:CPU:0"
  attr {
    key: "_output_shapes"
    value {
      list {
        shape {
        }
      }
    }
  }
  attr {
    key: "dtype"
    value {
      type: DT_INT64
    }
  }
  attr {
    key: "value"
    value {
      tensor {
        dtype: DT_INT64
        tensor_shape {
        }
        int64_val: 64
      }
    }
  }
}
node {
  name: "drop_remainder"
  op: "Const"
  device: "/device:CPU:0"
  attr {
    key: "_output_shapes"
    value {
      list {
        shape {
        }
      }
    }
  }
  attr {
    key: "dtype"
    value {
      type: DT_BOOL
    }
  }
  attr {
    key: "value"
    value {
      tensor {
        dtype: DT_BOOL
        tensor_shape {
        }
        bool_val: false
      }
    }
  }
}
node {
  name: "buffer_size_3"
  op: "Const"
  device: "/device:CPU:0"
  attr {
    key: "_output_shapes"
    value {
      list {
        shape {
        }
      }
    }
  }
  attr {
    key: "dtype"
    value {
      type: DT_INT64
    }
  }
  attr {
    key: "value"
    value {
      tensor {
        dtype: DT_INT64
        tensor_shape {
        }
        int64_val: 1
      }
    }
  }
}
node {
  name: "Iterator"
  op: "Iterator"
  attr {
    key: "_output_shapes"
    value {
      list {
        shape {
        }
      }
    }
  }
  attr {
    key: "container"
    value {
      s: ""
    }
  }
  attr {
    key: "output_shapes"
    value {
      list {
        shape {
          dim {
            size: -1
          }
          dim {
            size: 784
          }
        }
        shape {
          dim {
            size: -1
          }
        }
      }
    }
  }
  attr {
    key: "output_types"
    value {
      list {
        type: DT_FLOAT
        type: DT_INT32
      }
    }
  }
  attr {
    key: "shared_name"
    value {
      s: ""
    }
  }
}
node {
  name: "FixedLengthRecordDataset"
  op: "FixedLengthRecordDataset"
  input: "filenames"
  input: "header_bytes"
  input: "record_bytes"
  input: "footer_bytes"
  input: "buffer_size"
  attr {
    key: "_class"
    value {
      list {
        s: "loc:@Iterator"
      }
    }
  }
  attr {
    key: "_output_shapes"
    value {
      list {
        shape {
        }
      }
    }
  }
}
node {
  name: "MapDataset"
  op: "MapDataset"
  input: "FixedLengthRecordDataset"
  attr {
    key: "Targuments"
    value {
      list {
      }
    }
  }
  attr {
    key: "_class"
    value {
      list {
        s: "loc:@Iterator"
      }
    }
  }
  attr {
    key: "_output_shapes"
    value {
      list {
        shape {
        }
      }
    }
  }
  attr {
    key: "f"
    value {
      func {
        name: "tf_data_structured_function_wrapper_PbI2H6gQI4M"
      }
    }
  }
  attr {
    key: "output_shapes"
    value {
      list {
        shape {
          dim {
            size: 784
          }
        }
      }
    }
  }
  attr {
    key: "output_types"
    value {
      list {
        type: DT_FLOAT
      }
    }
  }
}
node {
  name: "FixedLengthRecordDataset_1"
  op: "FixedLengthRecordDataset"
  input: "filenames_1"
  input: "header_bytes_1"
  input: "record_bytes_1"
  input: "footer_bytes_1"
  input: "buffer_size_1"
  attr {
    key: "_class"
    value {
      list {
        s: "loc:@Iterator"
      }
    }
  }
  attr {
    key: "_output_shapes"
    value {
      list {
        shape {
        }
      }
    }
  }
}
node {
  name: "MapDataset_1"
  op: "MapDataset"
  input: "FixedLengthRecordDataset_1"
  attr {
    key: "Targuments"
    value {
      list {
      }
    }
  }
  attr {
    key: "_class"
    value {
      list {
        s: "loc:@Iterator"
      }
    }
  }
  attr {
    key: "_output_shapes"
    value {
      list {
        shape {
        }
      }
    }
  }
  attr {
    key: "f"
    value {
      func {
        name: "tf_data_structured_function_wrapper_gB6yxMbOugc"
      }
    }
  }
  attr {
    key: "output_shapes"
    value {
      list {
        shape {
        }
      }
    }
  }
  attr {
    key: "output_types"
    value {
      list {
        type: DT_INT32
      }
    }
  }
}
node {
  name: "ZipDataset"
  op: "ZipDataset"
  input: "MapDataset"
  input: "MapDataset_1"
  attr {
    key: "N"
    value {
      i: 2
    }
  }
  attr {
    key: "_class"
    value {
      list {
        s: "loc:@Iterator"
      }
    }
  }
  attr {
    key: "_output_shapes"
    value {
      list {
        shape {
        }
      }
    }
  }
  attr {
    key: "output_shapes"
    value {
      list {
        shape {
          dim {
            size: 784
          }
        }
        shape {
        }
      }
    }
  }
  attr {
    key: "output_types"
    value {
      list {
        type: DT_FLOAT
        type: DT_INT32
      }
    }
  }
}
node {
  name: "ShuffleDataset"
  op: "ShuffleDataset"
  input: "ZipDataset"
  input: "buffer_size_2"
  input: "seed"
  input: "seed2"
  attr {
    key: "_class"
    value {
      list {
        s: "loc:@Iterator"
      }
    }
  }
  attr {
    key: "_output_shapes"
    value {
      list {
        shape {
        }
      }
    }
  }
  attr {
    key: "output_shapes"
    value {
      list {
        shape {
          dim {
            size: 784
          }
        }
        shape {
        }
      }
    }
  }
  attr {
    key: "output_types"
    value {
      list {
        type: DT_FLOAT
        type: DT_INT32
      }
    }
  }
  attr {
    key: "reshuffle_each_iteration"
    value {
      b: true
    }
  }
}
node {
  name: "RepeatDataset"
  op: "RepeatDataset"
  input: "ShuffleDataset"
  input: "count"
  attr {
    key: "_class"
    value {
      list {
        s: "loc:@Iterator"
      }
    }
  }
  attr {
    key: "_output_shapes"
    value {
      list {
        shape {
        }
      }
    }
  }
  attr {
    key: "output_shapes"
    value {
      list {
        shape {
          dim {
            size: 784
          }
        }
        shape {
        }
      }
    }
  }
  attr {
    key: "output_types"
    value {
      list {
        type: DT_FLOAT
        type: DT_INT32
      }
    }
  }
}
node {
  name: "BatchDatasetV2"
  op: "BatchDatasetV2"
  input: "RepeatDataset"
  input: "batch_size"
  input: "drop_remainder"
  attr {
    key: "_class"
    value {
      list {
        s: "loc:@Iterator"
      }
    }
  }
  attr {
    key: "_output_shapes"
    value {
      list {
        shape {
        }
      }
    }
  }
  attr {
    key: "output_shapes"
    value {
      list {
        shape {
          dim {
            size: -1
          }
          dim {
            size: 784
          }
        }
        shape {
          dim {
            size: -1
          }
        }
      }
    }
  }
  attr {
    key: "output_types"
    value {
      list {
        type: DT_FLOAT
        type: DT_INT32
      }
    }
  }
}
node {
  name: "PrefetchDataset"
  op: "PrefetchDataset"
  input: "BatchDatasetV2"
  input: "buffer_size_3"
  attr {
    key: "_class"
    value {
      list {
        s: "loc:@Iterator"
      }
    }
  }
  attr {
    key: "_output_shapes"
    value {
      list {
        shape {
        }
      }
    }
  }
  attr {
    key: "output_shapes"
    value {
      list {
        shape {
          dim {
            size: -1
          }
          dim {
            size: 784
          }
        }
        shape {
          dim {
            size: -1
          }
        }
      }
    }
  }
  attr {
    key: "output_types"
    value {
      list {
        type: DT_FLOAT
        type: DT_INT32
      }
    }
  }
}
node {
  name: "MakeIterator"
  op: "MakeIterator"
  input: "PrefetchDataset"
  input: "Iterator"
  attr {
    key: "_class"
    value {
      list {
        s: "loc:@Iterator"
      }
    }
  }
}
node {
  name: "IteratorToStringHandle"
  op: "IteratorToStringHandle"
  input: "Iterator"
  attr {
    key: "_output_shapes"
    value {
      list {
        shape {
        }
      }
    }
  }
}
node {
  name: "IteratorGetNext"
  op: "IteratorGetNext"
  input: "Iterator"
  attr {
    key: "_output_shapes"
    value {
      list {
        shape {
          dim {
            size: -1
          }
          dim {
            size: 784
          }
        }
        shape {
          dim {
            size: -1
          }
        }
      }
    }
  }
  attr {
    key: "output_shapes"
    value {
      list {
        shape {
          dim {
            size: -1
          }
          dim {
            size: 784
          }
        }
        shape {
          dim {
            size: -1
          }
        }
      }
    }
  }
  attr {
    key: "output_types"
    value {
      list {
        type: DT_FLOAT
        type: DT_INT32
      }
    }
  }
}
node {
  name: "Reshape/shape"
  op: "Const"
  attr {
    key: "_output_shapes"
    value {
      list {
        shape {
          dim {
            size: 4
          }
        }
      }
    }
  }
  attr {
    key: "dtype"
    value {
      type: DT_INT32
    }
  }
  attr {
    key: "value"
    value {
      tensor {
        dtype: DT_INT32
        tensor_shape {
          dim {
            size: 4
          }
        }
        tensor_content: "\377\377\377\377\034\000\000\000\034\000\000\000\001\000\000\000"
      }
    }
  }
}
node {
  name: "Reshape"
  op: "Reshape"
  input: "IteratorGetNext"
  input: "Reshape/shape"
  attr {
    key: "T"
    value {
      type: DT_FLOAT
    }
  }
  attr {
    key: "Tshape"
    value {
      type: DT_INT32
    }
  }
  attr {
    key: "_output_shapes"
    value {
      list {
        shape {
          dim {
            size: -1
          }
          dim {
            size: 28
          }
          dim {
            size: 28
          }
          dim {
            size: 1
          }
        }
      }
    }
  }
}
node {
  name: "model/block_0/conv2d/kernel/Initializer/random_uniform/shape"
  op: "Const"
  attr {
    key: "_class"
    value {
      list {
        s: "loc:@model/block_0/conv2d/kernel"
      }
    }
  }
  attr {
    key: "_output_shapes"
    value {
      list {
        shape {
          dim {
            size: 4
          }
        }
      }
    }
  }
  attr {
    key: "dtype"
    value {
      type: DT_INT32
    }
  }
  attr {
    key: "value"
    value {
      tensor {
        dtype: DT_INT32
        tensor_shape {
          dim {
            size: 4
          }
        }
        tensor_content: "\003\000\000\000\003\000\000\000\001\000\000\000 \000\000\000"
      }
    }
  }
}
node {
  name: "model/block_0/conv2d/kernel/Initializer/random_uniform/min"
  op: "Const"
  attr {
    key: "_class"
    value {
      list {
        s: "loc:@model/block_0/conv2d/kernel"
      }
    }
  }
  attr {
    key: "_output_shapes"
    value {
      list {
        shape {
        }
      }
    }
  }
  attr {
    key: "dtype"
    value {
      type: DT_FLOAT
    }
  }
  attr {
    key: "value"
    value {
      tensor {
        dtype: DT_FLOAT
        tensor_shape {
        }
        float_val: -0.14213381707668304
      }
    }
  }
}
node {
  name: "model/block_0/conv2d/kernel/Initializer/random_uniform/max"
  op: "Const"
  attr {
    key: "_class"
    value {
      list {
        s: "loc:@model/block_0/conv2d/kernel"
      }
    }
  }
  attr {
    key: "_output_shapes"
    value {
      list {
        shape {
        }
      }
    }
  }
  attr {
    key: "dtype"
    value {
      type: DT_FLOAT
    }
  }
  attr {
    key: "value"
    value {
      tensor {
        dtype: DT_FLOAT
        tensor_shape {
        }
        float_val: 0.14213381707668304
      }
    }
  }
}
node {
  name: "model/block_0/conv2d/kernel/Initializer/random_uniform/RandomUniform"
  op: "RandomUniform"
  input: "model/block_0/conv2d/kernel/Initializer/random_uniform/shape"
  attr {
    key: "T"
    value {
      type: DT_INT32
    }
  }
  attr {
    key: "_class"
    value {
      list {
        s: "loc:@model/block_0/conv2d/kernel"
      }
    }
  }
  attr {
    key: "_output_shapes"
    value {
      list {
        shape {
          dim {
            size: 3
          }
          dim {
            size: 3
          }
          dim {
            size: 1
          }
          dim {
            size: 32
          }
        }
      }
    }
  }
  attr {
    key: "dtype"
    value {
      type: DT_FLOAT
    }
  }
  attr {
    key: "seed"
    value {
      i: 100
    }
  }
  attr {
    key: "seed2"
    value {
      i: 57
    }
  }
}
node {
  name: "model/block_0/conv2d/kernel/Initializer/random_uniform/sub"
  op: "Sub"
  input: "model/block_0/conv2d/kernel/Initializer/random_uniform/max"
  input: "model/block_0/conv2d/kernel/Initializer/random_uniform/min"
  attr {
    key: "T"
    value {
      type: DT_FLOAT
    }
  }
  attr {
    key: "_class"
    value {
      list {
        s: "loc:@model/block_0/conv2d/kernel"
      }
    }
  }
  attr {
    key: "_output_shapes"
    value {
      list {
        shape {
        }
      }
    }
  }
}
node {
  name: "model/block_0/conv2d/kernel/Initializer/random_uniform/mul"
  op: "Mul"
  input: "model/block_0/conv2d/kernel/Initializer/random_uniform/RandomUniform"
  input: "model/block_0/conv2d/kernel/Initializer/random_uniform/sub"
  attr {
    key: "T"
    value {
      type: DT_FLOAT
    }
  }
  attr {
    key: "_class"
    value {
      list {
        s: "loc:@model/block_0/conv2d/kernel"
      }
    }
  }
  attr {
    key: "_output_shapes"
    value {
      list {
        shape {
          dim {
            size: 3
          }
          dim {
            size: 3
          }
          dim {
            size: 1
          }
          dim {
            size: 32
          }
        }
      }
    }
  }
}
node {
  name: "model/block_0/conv2d/kernel/Initializer/random_uniform"
  op: "Add"
  input: "model/block_0/conv2d/kernel/Initializer/random_uniform/mul"
  input: "model/block_0/conv2d/kernel/Initializer/random_uniform/min"
  attr {
    key: "T"
    value {
      type: DT_FLOAT
    }
  }
  attr {
    key: "_class"
    value {
      list {
        s: "loc:@model/block_0/conv2d/kernel"
      }
    }
  }
  attr {
    key: "_output_shapes"
    value {
      list {
        shape {
          dim {
            size: 3
          }
          dim {
            size: 3
          }
          dim {
            size: 1
          }
          dim {
            size: 32
          }
        }
      }
    }
  }
}
node {
  name: "model/block_0/conv2d/kernel"
  op: "VariableV2"
  attr {
    key: "_class"
    value {
      list {
        s: "loc:@model/block_0/conv2d/kernel"
      }
    }
  }
  attr {
    key: "_output_shapes"
    value {
      list {
        shape {
          dim {
            size: 3
          }
          dim {
            size: 3
          }
          dim {
            size: 1
          }
          dim {
            size: 32
          }
        }
      }
    }
  }
  attr {
    key: "container"
    value {
      s: ""
    }
  }
  attr {
    key: "dtype"
    value {
      type: DT_FLOAT
    }
  }
  attr {
    key: "shape"
    value {
      shape {
        dim {
          size: 3
        }
        dim {
          size: 3
        }
        dim {
          size: 1
        }
        dim {
          size: 32
        }
      }
    }
  }
  attr {
    key: "shared_name"
    value {
      s: ""
    }
  }
}
node {
  name: "model/block_0/conv2d/kernel/Assign"
  op: "Assign"
  input: "model/block_0/conv2d/kernel"
  input: "model/block_0/conv2d/kernel/Initializer/random_uniform"
  attr {
    key: "T"
    value {
      type: DT_FLOAT
    }
  }
  attr {
    key: "_class"
    value {
      list {
        s: "loc:@model/block_0/conv2d/kernel"
      }
    }
  }
  attr {
    key: "_output_shapes"
    value {
      list {
        shape {
          dim {
            size: 3
          }
          dim {
            size: 3
          }
          dim {
            size: 1
          }
          dim {
            size: 32
          }
        }
      }
    }
  }
  attr {
    key: "use_locking"
    value {
      b: true
    }
  }
  attr {
    key: "validate_shape"
    value {
      b: true
    }
  }
}
node {
  name: "model/block_0/conv2d/kernel/read"
  op: "Identity"
  input: "model/block_0/conv2d/kernel"
  attr {
    key: "T"
    value {
      type: DT_FLOAT
    }
  }
  attr {
    key: "_class"
    value {
      list {
        s: "loc:@model/block_0/conv2d/kernel"
      }
    }
  }
  attr {
    key: "_output_shapes"
    value {
      list {
        shape {
          dim {
            size: 3
          }
          dim {
            size: 3
          }
          dim {
            size: 1
          }
          dim {
            size: 32
          }
        }
      }
    }
  }
}
node {
  name: "model/block_0/conv2d/bias/Initializer/zeros"
  op: "Const"
  attr {
    key: "_class"
    value {
      list {
        s: "loc:@model/block_0/conv2d/bias"
      }
    }
  }
  attr {
    key: "_output_shapes"
    value {
      list {
        shape {
          dim {
            size: 32
          }
        }
      }
    }
  }
  attr {
    key: "dtype"
    value {
      type: DT_FLOAT
    }
  }
  attr {
    key: "value"
    value {
      tensor {
        dtype: DT_FLOAT
        tensor_shape {
          dim {
            size: 32
          }
        }
        float_val: 0.0
      }
    }
  }
}
node {
  name: "model/block_0/conv2d/bias"
  op: "VariableV2"
  attr {
    key: "_class"
    value {
      list {
        s: "loc:@model/block_0/conv2d/bias"
      }
    }
  }
  attr {
    key: "_output_shapes"
    value {
      list {
        shape {
          dim {
            size: 32
          }
        }
      }
    }
  }
  attr {
    key: "container"
    value {
      s: ""
    }
  }
  attr {
    key: "dtype"
    value {
      type: DT_FLOAT
    }
  }
  attr {
    key: "shape"
    value {
      shape {
        dim {
          size: 32
        }
      }
    }
  }
  attr {
    key: "shared_name"
    value {
      s: ""
    }
  }
}
node {
  name: "model/block_0/conv2d/bias/Assign"
  op: "Assign"
  input: "model/block_0/conv2d/bias"
  input: "model/block_0/conv2d/bias/Initializer/zeros"
  attr {
    key: "T"
    value {
      type: DT_FLOAT
    }
  }
  attr {
    key: "_class"
    value {
      list {
        s: "loc:@model/block_0/conv2d/bias"
      }
    }
  }
  attr {
    key: "_output_shapes"
    value {
      list {
        shape {
          dim {
            size: 32
          }
        }
      }
    }
  }
  attr {
    key: "use_locking"
    value {
      b: true
    }
  }
  attr {
    key: "validate_shape"
    value {
      b: true
    }
  }
}
node {
  name: "model/block_0/conv2d/bias/read"
  op: "Identity"
  input: "model/block_0/conv2d/bias"
  attr {
    key: "T"
    value {
      type: DT_FLOAT
    }
  }
  attr {
    key: "_class"
    value {
      list {
        s: "loc:@model/block_0/conv2d/bias"
      }
    }
  }
  attr {
    key: "_output_shapes"
    value {
      list {
        shape {
          dim {
            size: 32
          }
        }
      }
    }
  }
}
node {
  name: "model/block_0/conv2d/dilation_rate"
  op: "Const"
  attr {
    key: "_output_shapes"
    value {
      list {
        shape {
          dim {
            size: 2
          }
        }
      }
    }
  }
  attr {
    key: "dtype"
    value {
      type: DT_INT32
    }
  }
  attr {
    key: "value"
    value {
      tensor {
        dtype: DT_INT32
        tensor_shape {
          dim {
            size: 2
          }
        }
        tensor_content: "\001\000\000\000\001\000\000\000"
      }
    }
  }
}
node {
  name: "model/block_0/conv2d/Conv2D"
  op: "Conv2D"
  input: "Reshape"
  input: "model/block_0/conv2d/kernel/read"
  attr {
    key: "T"
    value {
      type: DT_FLOAT
    }
  }
  attr {
    key: "_output_shapes"
    value {
      list {
        shape {
          dim {
            size: -1
          }
          dim {
            size: 28
          }
          dim {
            size: 28
          }
          dim {
            size: 32
          }
        }
      }
    }
  }
  attr {
    key: "data_format"
    value {
      s: "NHWC"
    }
  }
  attr {
    key: "dilations"
    value {
      list {
        i: 1
        i: 1
        i: 1
        i: 1
      }
    }
  }
  attr {
    key: "padding"
    value {
      s: "SAME"
    }
  }
  attr {
    key: "strides"
    value {
      list {
        i: 1
        i: 1
        i: 1
        i: 1
      }
    }
  }
  attr {
    key: "use_cudnn_on_gpu"
    value {
      b: true
    }
  }
}
node {
  name: "model/block_0/conv2d/BiasAdd"
  op: "BiasAdd"
  input: "model/block_0/conv2d/Conv2D"
  input: "model/block_0/conv2d/bias/read"
  attr {
    key: "T"
    value {
      type: DT_FLOAT
    }
  }
  attr {
    key: "_output_shapes"
    value {
      list {
        shape {
          dim {
            size: -1
          }
          dim {
            size: 28
          }
          dim {
            size: 28
          }
          dim {
            size: 32
          }
        }
      }
    }
  }
  attr {
    key: "data_format"
    value {
      s: "NHWC"
    }
  }
}
node {
  name: "model/block_0/Relu"
  op: "Relu"
  input: "model/block_0/conv2d/BiasAdd"
  attr {
    key: "T"
    value {
      type: DT_FLOAT
    }
  }
  attr {
    key: "_output_shapes"
    value {
      list {
        shape {
          dim {
            size: -1
          }
          dim {
            size: 28
          }
          dim {
            size: 28
          }
          dim {
            size: 32
          }
        }
      }
    }
  }
}
node {
  name: "model/block_0/max_pooling2d/MaxPool"
  op: "MaxPool"
  input: "model/block_0/Relu"
  attr {
    key: "T"
    value {
      type: DT_FLOAT
    }
  }
  attr {
    key: "_output_shapes"
    value {
      list {
        shape {
          dim {
            size: -1
          }
          dim {
            size: 14
          }
          dim {
            size: 14
          }
          dim {
            size: 32
          }
        }
      }
    }
  }
  attr {
    key: "data_format"
    value {
      s: "NHWC"
    }
  }
  attr {
    key: "ksize"
    value {
      list {
        i: 1
        i: 2
        i: 2
        i: 1
      }
    }
  }
  attr {
    key: "padding"
    value {
      s: "VALID"
    }
  }
  attr {
    key: "strides"
    value {
      list {
        i: 1
        i: 2
        i: 2
        i: 1
      }
    }
  }
}
node {
  name: "model/block_1/conv2d/kernel/Initializer/random_uniform/shape"
  op: "Const"
  attr {
    key: "_class"
    value {
      list {
        s: "loc:@model/block_1/conv2d/kernel"
      }
    }
  }
  attr {
    key: "_output_shapes"
    value {
      list {
        shape {
          dim {
            size: 4
          }
        }
      }
    }
  }
  attr {
    key: "dtype"
    value {
      type: DT_INT32
    }
  }
  attr {
    key: "value"
    value {
      tensor {
        dtype: DT_INT32
        tensor_shape {
          dim {
            size: 4
          }
        }
        tensor_content: "\003\000\000\000\003\000\000\000 \000\000\000@\000\000\000"
      }
    }
  }
}
node {
  name: "model/block_1/conv2d/kernel/Initializer/random_uniform/min"
  op: "Const"
  attr {
    key: "_class"
    value {
      list {
        s: "loc:@model/block_1/conv2d/kernel"
      }
    }
  }
  attr {
    key: "_output_shapes"
    value {
      list {
        shape {
        }
      }
    }
  }
  attr {
    key: "dtype"
    value {
      type: DT_FLOAT
    }
  }
  attr {
    key: "value"
    value {
      tensor {
        dtype: DT_FLOAT
        tensor_shape {
        }
        float_val: -0.0833333358168602
      }
    }
  }
}
node {
  name: "model/block_1/conv2d/kernel/Initializer/random_uniform/max"
  op: "Const"
  attr {
    key: "_class"
    value {
      list {
        s: "loc:@model/block_1/conv2d/kernel"
      }
    }
  }
  attr {
    key: "_output_shapes"
    value {
      list {
        shape {
        }
      }
    }
  }
  attr {
    key: "dtype"
    value {
      type: DT_FLOAT
    }
  }
  attr {
    key: "value"
    value {
      tensor {
        dtype: DT_FLOAT
        tensor_shape {
        }
        float_val: 0.0833333358168602
      }
    }
  }
}
node {
  name: "model/block_1/conv2d/kernel/Initializer/random_uniform/RandomUniform"
  op: "RandomUniform"
  input: "model/block_1/conv2d/kernel/Initializer/random_uniform/shape"
  attr {
    key: "T"
    value {
      type: DT_INT32
    }
  }
  attr {
    key: "_class"
    value {
      list {
        s: "loc:@model/block_1/conv2d/kernel"
      }
    }
  }
  attr {
    key: "_output_shapes"
    value {
      list {
        shape {
          dim {
            size: 3
          }
          dim {
            size: 3
          }
          dim {
            size: 32
          }
          dim {
            size: 64
          }
        }
      }
    }
  }
  attr {
    key: "dtype"
    value {
      type: DT_FLOAT
    }
  }
  attr {
    key: "seed"
    value {
      i: 100
    }
  }
  attr {
    key: "seed2"
    value {
      i: 76
    }
  }
}
node {
  name: "model/block_1/conv2d/kernel/Initializer/random_uniform/sub"
  op: "Sub"
  input: "model/block_1/conv2d/kernel/Initializer/random_uniform/max"
  input: "model/block_1/conv2d/kernel/Initializer/random_uniform/min"
  attr {
    key: "T"
    value {
      type: DT_FLOAT
    }
  }
  attr {
    key: "_class"
    value {
      list {
        s: "loc:@model/block_1/conv2d/kernel"
      }
    }
  }
  attr {
    key: "_output_shapes"
    value {
      list {
        shape {
        }
      }
    }
  }
}
node {
  name: "model/block_1/conv2d/kernel/Initializer/random_uniform/mul"
  op: "Mul"
  input: "model/block_1/conv2d/kernel/Initializer/random_uniform/RandomUniform"
  input: "model/block_1/conv2d/kernel/Initializer/random_uniform/sub"
  attr {
    key: "T"
    value {
      type: DT_FLOAT
    }
  }
  attr {
    key: "_class"
    value {
      list {
        s: "loc:@model/block_1/conv2d/kernel"
      }
    }
  }
  attr {
    key: "_output_shapes"
    value {
      list {
        shape {
          dim {
            size: 3
          }
          dim {
            size: 3
          }
          dim {
            size: 32
          }
          dim {
            size: 64
          }
        }
      }
    }
  }
}
node {
  name: "model/block_1/conv2d/kernel/Initializer/random_uniform"
  op: "Add"
  input: "model/block_1/conv2d/kernel/Initializer/random_uniform/mul"
  input: "model/block_1/conv2d/kernel/Initializer/random_uniform/min"
  attr {
    key: "T"
    value {
      type: DT_FLOAT
    }
  }
  attr {
    key: "_class"
    value {
      list {
        s: "loc:@model/block_1/conv2d/kernel"
      }
    }
  }
  attr {
    key: "_output_shapes"
    value {
      list {
        shape {
          dim {
            size: 3
          }
          dim {
            size: 3
          }
          dim {
            size: 32
          }
          dim {
            size: 64
          }
        }
      }
    }
  }
}
node {
  name: "model/block_1/conv2d/kernel"
  op: "VariableV2"
  attr {
    key: "_class"
    value {
      list {
        s: "loc:@model/block_1/conv2d/kernel"
      }
    }
  }
  attr {
    key: "_output_shapes"
    value {
      list {
        shape {
          dim {
            size: 3
          }
          dim {
            size: 3
          }
          dim {
            size: 32
          }
          dim {
            size: 64
          }
        }
      }
    }
  }
  attr {
    key: "container"
    value {
      s: ""
    }
  }
  attr {
    key: "dtype"
    value {
      type: DT_FLOAT
    }
  }
  attr {
    key: "shape"
    value {
      shape {
        dim {
          size: 3
        }
        dim {
          size: 3
        }
        dim {
          size: 32
        }
        dim {
          size: 64
        }
      }
    }
  }
  attr {
    key: "shared_name"
    value {
      s: ""
    }
  }
}
node {
  name: "model/block_1/conv2d/kernel/Assign"
  op: "Assign"
  input: "model/block_1/conv2d/kernel"
  input: "model/block_1/conv2d/kernel/Initializer/random_uniform"
  attr {
    key: "T"
    value {
      type: DT_FLOAT
    }
  }
  attr {
    key: "_class"
    value {
      list {
        s: "loc:@model/block_1/conv2d/kernel"
      }
    }
  }
  attr {
    key: "_output_shapes"
    value {
      list {
        shape {
          dim {
            size: 3
          }
          dim {
            size: 3
          }
          dim {
            size: 32
          }
          dim {
            size: 64
          }
        }
      }
    }
  }
  attr {
    key: "use_locking"
    value {
      b: true
    }
  }
  attr {
    key: "validate_shape"
    value {
      b: true
    }
  }
}
node {
  name: "model/block_1/conv2d/kernel/read"
  op: "Identity"
  input: "model/block_1/conv2d/kernel"
  attr {
    key: "T"
    value {
      type: DT_FLOAT
    }
  }
  attr {
    key: "_class"
    value {
      list {
        s: "loc:@model/block_1/conv2d/kernel"
      }
    }
  }
  attr {
    key: "_output_shapes"
    value {
      list {
        shape {
          dim {
            size: 3
          }
          dim {
            size: 3
          }
          dim {
            size: 32
          }
          dim {
            size: 64
          }
        }
      }
    }
  }
}
node {
  name: "model/block_1/conv2d/bias/Initializer/zeros"
  op: "Const"
  attr {
    key: "_class"
    value {
      list {
        s: "loc:@model/block_1/conv2d/bias"
      }
    }
  }
  attr {
    key: "_output_shapes"
    value {
      list {
        shape {
          dim {
            size: 64
          }
        }
      }
    }
  }
  attr {
    key: "dtype"
    value {
      type: DT_FLOAT
    }
  }
  attr {
    key: "value"
    value {
      tensor {
        dtype: DT_FLOAT
        tensor_shape {
          dim {
            size: 64
          }
        }
        float_val: 0.0
      }
    }
  }
}
node {
  name: "model/block_1/conv2d/bias"
  op: "VariableV2"
  attr {
    key: "_class"
    value {
      list {
        s: "loc:@model/block_1/conv2d/bias"
      }
    }
  }
  attr {
    key: "_output_shapes"
    value {
      list {
        shape {
          dim {
            size: 64
          }
        }
      }
    }
  }
  attr {
    key: "container"
    value {
      s: ""
    }
  }
  attr {
    key: "dtype"
    value {
      type: DT_FLOAT
    }
  }
  attr {
    key: "shape"
    value {
      shape {
        dim {
          size: 64
        }
      }
    }
  }
  attr {
    key: "shared_name"
    value {
      s: ""
    }
  }
}
node {
  name: "model/block_1/conv2d/bias/Assign"
  op: "Assign"
  input: "model/block_1/conv2d/bias"
  input: "model/block_1/conv2d/bias/Initializer/zeros"
  attr {
    key: "T"
    value {
      type: DT_FLOAT
    }
  }
  attr {
    key: "_class"
    value {
      list {
        s: "loc:@model/block_1/conv2d/bias"
      }
    }
  }
  attr {
    key: "_output_shapes"
    value {
      list {
        shape {
          dim {
            size: 64
          }
        }
      }
    }
  }
  attr {
    key: "use_locking"
    value {
      b: true
    }
  }
  attr {
    key: "validate_shape"
    value {
      b: true
    }
  }
}
node {
  name: "model/block_1/conv2d/bias/read"
  op: "Identity"
  input: "model/block_1/conv2d/bias"
  attr {
    key: "T"
    value {
      type: DT_FLOAT
    }
  }
  attr {
    key: "_class"
    value {
      list {
        s: "loc:@model/block_1/conv2d/bias"
      }
    }
  }
  attr {
    key: "_output_shapes"
    value {
      list {
        shape {
          dim {
            size: 64
          }
        }
      }
    }
  }
}
node {
  name: "model/block_1/conv2d/dilation_rate"
  op: "Const"
  attr {
    key: "_output_shapes"
    value {
      list {
        shape {
          dim {
            size: 2
          }
        }
      }
    }
  }
  attr {
    key: "dtype"
    value {
      type: DT_INT32
    }
  }
  attr {
    key: "value"
    value {
      tensor {
        dtype: DT_INT32
        tensor_shape {
          dim {
            size: 2
          }
        }
        tensor_content: "\001\000\000\000\001\000\000\000"
      }
    }
  }
}
node {
  name: "model/block_1/conv2d/Conv2D"
  op: "Conv2D"
  input: "model/block_0/max_pooling2d/MaxPool"
  input: "model/block_1/conv2d/kernel/read"
  attr {
    key: "T"
    value {
      type: DT_FLOAT
    }
  }
  attr {
    key: "_output_shapes"
    value {
      list {
        shape {
          dim {
            size: -1
          }
          dim {
            size: 14
          }
          dim {
            size: 14
          }
          dim {
            size: 64
          }
        }
      }
    }
  }
  attr {
    key: "data_format"
    value {
      s: "NHWC"
    }
  }
  attr {
    key: "dilations"
    value {
      list {
        i: 1
        i: 1
        i: 1
        i: 1
      }
    }
  }
  attr {
    key: "padding"
    value {
      s: "SAME"
    }
  }
  attr {
    key: "strides"
    value {
      list {
        i: 1
        i: 1
        i: 1
        i: 1
      }
    }
  }
  attr {
    key: "use_cudnn_on_gpu"
    value {
      b: true
    }
  }
}
node {
  name: "model/block_1/conv2d/BiasAdd"
  op: "BiasAdd"
  input: "model/block_1/conv2d/Conv2D"
  input: "model/block_1/conv2d/bias/read"
  attr {
    key: "T"
    value {
      type: DT_FLOAT
    }
  }
  attr {
    key: "_output_shapes"
    value {
      list {
        shape {
          dim {
            size: -1
          }
          dim {
            size: 14
          }
          dim {
            size: 14
          }
          dim {
            size: 64
          }
        }
      }
    }
  }
  attr {
    key: "data_format"
    value {
      s: "NHWC"
    }
  }
}
node {
  name: "model/block_1/Relu"
  op: "Relu"
  input: "model/block_1/conv2d/BiasAdd"
  attr {
    key: "T"
    value {
      type: DT_FLOAT
    }
  }
  attr {
    key: "_output_shapes"
    value {
      list {
        shape {
          dim {
            size: -1
          }
          dim {
            size: 14
          }
          dim {
            size: 14
          }
          dim {
            size: 64
          }
        }
      }
    }
  }
}
node {
  name: "model/block_1/max_pooling2d/MaxPool"
  op: "MaxPool"
  input: "model/block_1/Relu"
  attr {
    key: "T"
    value {
      type: DT_FLOAT
    }
  }
  attr {
    key: "_output_shapes"
    value {
      list {
        shape {
          dim {
            size: -1
          }
          dim {
            size: 7
          }
          dim {
            size: 7
          }
          dim {
            size: 64
          }
        }
      }
    }
  }
  attr {
    key: "data_format"
    value {
      s: "NHWC"
    }
  }
  attr {
    key: "ksize"
    value {
      list {
        i: 1
        i: 2
        i: 2
        i: 1
      }
    }
  }
  attr {
    key: "padding"
    value {
      s: "VALID"
    }
  }
  attr {
    key: "strides"
    value {
      list {
        i: 1
        i: 2
        i: 2
        i: 1
      }
    }
  }
}
node {
  name: "model/Reshape/shape"
  op: "Const"
  attr {
    key: "_output_shapes"
    value {
      list {
        shape {
          dim {
            size: 2
          }
        }
      }
    }
  }
  attr {
    key: "dtype"
    value {
      type: DT_INT32
    }
  }
  attr {
    key: "value"
    value {
      tensor {
        dtype: DT_INT32
        tensor_shape {
          dim {
            size: 2
          }
        }
        tensor_content: "\377\377\377\377@\014\000\000"
      }
    }
  }
}
node {
  name: "model/Reshape"
  op: "Reshape"
  input: "model/block_1/max_pooling2d/MaxPool"
  input: "model/Reshape/shape"
  attr {
    key: "T"
    value {
      type: DT_FLOAT
    }
  }
  attr {
    key: "Tshape"
    value {
      type: DT_INT32
    }
  }
  attr {
    key: "_output_shapes"
    value {
      list {
        shape {
          dim {
            size: -1
          }
          dim {
            size: 3136
          }
        }
      }
    }
  }
}
node {
  name: "model/fc_1/dense/kernel/Initializer/random_uniform/shape"
  op: "Const"
  attr {
    key: "_class"
    value {
      list {
        s: "loc:@model/fc_1/dense/kernel"
      }
    }
  }
  attr {
    key: "_output_shapes"
    value {
      list {
        shape {
          dim {
            size: 2
          }
        }
      }
    }
  }
  attr {
    key: "dtype"
    value {
      type: DT_INT32
    }
  }
  attr {
    key: "value"
    value {
      tensor {
        dtype: DT_INT32
        tensor_shape {
          dim {
            size: 2
          }
        }
        tensor_content: "@\014\000\000@\000\000\000"
      }
    }
  }
}
node {
  name: "model/fc_1/dense/kernel/Initializer/random_uniform/min"
  op: "Const"
  attr {
    key: "_class"
    value {
      list {
        s: "loc:@model/fc_1/dense/kernel"
      }
    }
  }
  attr {
    key: "_output_shapes"
    value {
      list {
        shape {
        }
      }
    }
  }
  attr {
    key: "dtype"
    value {
      type: DT_FLOAT
    }
  }
  attr {
    key: "value"
    value {
      tensor {
        dtype: DT_FLOAT
        tensor_shape {
        }
        float_val: -0.04330126941204071
      }
    }
  }
}
node {
  name: "model/fc_1/dense/kernel/Initializer/random_uniform/max"
  op: "Const"
  attr {
    key: "_class"
    value {
      list {
        s: "loc:@model/fc_1/dense/kernel"
      }
    }
  }
  attr {
    key: "_output_shapes"
    value {
      list {
        shape {
        }
      }
    }
  }
  attr {
    key: "dtype"
    value {
      type: DT_FLOAT
    }
  }
  attr {
    key: "value"
    value {
      tensor {
        dtype: DT_FLOAT
        tensor_shape {
        }
        float_val: 0.04330126941204071
      }
    }
  }
}
node {
  name: "model/fc_1/dense/kernel/Initializer/random_uniform/RandomUniform"
  op: "RandomUniform"
  input: "model/fc_1/dense/kernel/Initializer/random_uniform/shape"
  attr {
    key: "T"
    value {
      type: DT_INT32
    }
  }
  attr {
    key: "_class"
    value {
      list {
        s: "loc:@model/fc_1/dense/kernel"
      }
    }
  }
  attr {
    key: "_output_shapes"
    value {
      list {
        shape {
          dim {
            size: 3136
          }
          dim {
            size: 64
          }
        }
      }
    }
  }
  attr {
    key: "dtype"
    value {
      type: DT_FLOAT
    }
  }
  attr {
    key: "seed"
    value {
      i: 100
    }
  }
  attr {
    key: "seed2"
    value {
      i: 97
    }
  }
}
node {
  name: "model/fc_1/dense/kernel/Initializer/random_uniform/sub"
  op: "Sub"
  input: "model/fc_1/dense/kernel/Initializer/random_uniform/max"
  input: "model/fc_1/dense/kernel/Initializer/random_uniform/min"
  attr {
    key: "T"
    value {
      type: DT_FLOAT
    }
  }
  attr {
    key: "_class"
    value {
      list {
        s: "loc:@model/fc_1/dense/kernel"
      }
    }
  }
  attr {
    key: "_output_shapes"
    value {
      list {
        shape {
        }
      }
    }
  }
}
node {
  name: "model/fc_1/dense/kernel/Initializer/random_uniform/mul"
  op: "Mul"
  input: "model/fc_1/dense/kernel/Initializer/random_uniform/RandomUniform"
  input: "model/fc_1/dense/kernel/Initializer/random_uniform/sub"
  attr {
    key: "T"
    value {
      type: DT_FLOAT
    }
  }
  attr {
    key: "_class"
    value {
      list {
        s: "loc:@model/fc_1/dense/kernel"
      }
    }
  }
  attr {
    key: "_output_shapes"
    value {
      list {
        shape {
          dim {
            size: 3136
          }
          dim {
            size: 64
          }
        }
      }
    }
  }
}
node {
  name: "model/fc_1/dense/kernel/Initializer/random_uniform"
  op: "Add"
  input: "model/fc_1/dense/kernel/Initializer/random_uniform/mul"
  input: "model/fc_1/dense/kernel/Initializer/random_uniform/min"
  attr {
    key: "T"
    value {
      type: DT_FLOAT
    }
  }
  attr {
    key: "_class"
    value {
      list {
        s: "loc:@model/fc_1/dense/kernel"
      }
    }
  }
  attr {
    key: "_output_shapes"
    value {
      list {
        shape {
          dim {
            size: 3136
          }
          dim {
            size: 64
          }
        }
      }
    }
  }
}
node {
  name: "model/fc_1/dense/kernel"
  op: "VariableV2"
  attr {
    key: "_class"
    value {
      list {
        s: "loc:@model/fc_1/dense/kernel"
      }
    }
  }
  attr {
    key: "_output_shapes"
    value {
      list {
        shape {
          dim {
            size: 3136
          }
          dim {
            size: 64
          }
        }
      }
    }
  }
  attr {
    key: "container"
    value {
      s: ""
    }
  }
  attr {
    key: "dtype"
    value {
      type: DT_FLOAT
    }
  }
  attr {
    key: "shape"
    value {
      shape {
        dim {
          size: 3136
        }
        dim {
          size: 64
        }
      }
    }
  }
  attr {
    key: "shared_name"
    value {
      s: ""
    }
  }
}
node {
  name: "model/fc_1/dense/kernel/Assign"
  op: "Assign"
  input: "model/fc_1/dense/kernel"
  input: "model/fc_1/dense/kernel/Initializer/random_uniform"
  attr {
    key: "T"
    value {
      type: DT_FLOAT
    }
  }
  attr {
    key: "_class"
    value {
      list {
        s: "loc:@model/fc_1/dense/kernel"
      }
    }
  }
  attr {
    key: "_output_shapes"
    value {
      list {
        shape {
          dim {
            size: 3136
          }
          dim {
            size: 64
          }
        }
      }
    }
  }
  attr {
    key: "use_locking"
    value {
      b: true
    }
  }
  attr {
    key: "validate_shape"
    value {
      b: true
    }
  }
}
node {
  name: "model/fc_1/dense/kernel/read"
  op: "Identity"
  input: "model/fc_1/dense/kernel"
  attr {
    key: "T"
    value {
      type: DT_FLOAT
    }
  }
  attr {
    key: "_class"
    value {
      list {
        s: "loc:@model/fc_1/dense/kernel"
      }
    }
  }
  attr {
    key: "_output_shapes"
    value {
      list {
        shape {
          dim {
            size: 3136
          }
          dim {
            size: 64
          }
        }
      }
    }
  }
}
node {
  name: "model/fc_1/dense/bias/Initializer/zeros"
  op: "Const"
  attr {
    key: "_class"
    value {
      list {
        s: "loc:@model/fc_1/dense/bias"
      }
    }
  }
  attr {
    key: "_output_shapes"
    value {
      list {
        shape {
          dim {
            size: 64
          }
        }
      }
    }
  }
  attr {
    key: "dtype"
    value {
      type: DT_FLOAT
    }
  }
  attr {
    key: "value"
    value {
      tensor {
        dtype: DT_FLOAT
        tensor_shape {
          dim {
            size: 64
          }
        }
        float_val: 0.0
      }
    }
  }
}
node {
  name: "model/fc_1/dense/bias"
  op: "VariableV2"
  attr {
    key: "_class"
    value {
      list {
        s: "loc:@model/fc_1/dense/bias"
      }
    }
  }
  attr {
    key: "_output_shapes"
    value {
      list {
        shape {
          dim {
            size: 64
          }
        }
      }
    }
  }
  attr {
    key: "container"
    value {
      s: ""
    }
  }
  attr {
    key: "dtype"
    value {
      type: DT_FLOAT
    }
  }
  attr {
    key: "shape"
    value {
      shape {
        dim {
          size: 64
        }
      }
    }
  }
  attr {
    key: "shared_name"
    value {
      s: ""
    }
  }
}
node {
  name: "model/fc_1/dense/bias/Assign"
  op: "Assign"
  input: "model/fc_1/dense/bias"
  input: "model/fc_1/dense/bias/Initializer/zeros"
  attr {
    key: "T"
    value {
      type: DT_FLOAT
    }
  }
  attr {
    key: "_class"
    value {
      list {
        s: "loc:@model/fc_1/dense/bias"
      }
    }
  }
  attr {
    key: "_output_shapes"
    value {
      list {
        shape {
          dim {
            size: 64
          }
        }
      }
    }
  }
  attr {
    key: "use_locking"
    value {
      b: true
    }
  }
  attr {
    key: "validate_shape"
    value {
      b: true
    }
  }
}
node {
  name: "model/fc_1/dense/bias/read"
  op: "Identity"
  input: "model/fc_1/dense/bias"
  attr {
    key: "T"
    value {
      type: DT_FLOAT
    }
  }
  attr {
    key: "_class"
    value {
      list {
        s: "loc:@model/fc_1/dense/bias"
      }
    }
  }
  attr {
    key: "_output_shapes"
    value {
      list {
        shape {
          dim {
            size: 64
          }
        }
      }
    }
  }
}
node {
  name: "model/fc_1/dense/MatMul"
  op: "MatMul"
  input: "model/Reshape"
  input: "model/fc_1/dense/kernel/read"
  attr {
    key: "T"
    value {
      type: DT_FLOAT
    }
  }
  attr {
    key: "_output_shapes"
    value {
      list {
        shape {
          dim {
            size: -1
          }
          dim {
            size: 64
          }
        }
      }
    }
  }
  attr {
    key: "transpose_a"
    value {
      b: false
    }
  }
  attr {
    key: "transpose_b"
    value {
      b: false
    }
  }
}
node {
  name: "model/fc_1/dense/BiasAdd"
  op: "BiasAdd"
  input: "model/fc_1/dense/MatMul"
  input: "model/fc_1/dense/bias/read"
  attr {
    key: "T"
    value {
      type: DT_FLOAT
    }
  }
  attr {
    key: "_output_shapes"
    value {
      list {
        shape {
          dim {
            size: -1
          }
          dim {
            size: 64
          }
        }
      }
    }
  }
  attr {
    key: "data_format"
    value {
      s: "NHWC"
    }
  }
}
node {
  name: "Cast"
  op: "Cast"
  input: "IteratorGetNext:1"
  attr {
    key: "DstT"
    value {
      type: DT_INT64
    }
  }
  attr {
    key: "SrcT"
    value {
      type: DT_INT32
    }
  }
  attr {
    key: "_output_shapes"
    value {
      list {
        shape {
          dim {
            size: -1
          }
        }
      }
    }
  }
}
node {
  name: "transpose/Rank"
  op: "Rank"
  input: "model/fc_1/dense/BiasAdd"
  attr {
    key: "T"
    value {
      type: DT_FLOAT
    }
  }
  attr {
    key: "_output_shapes"
    value {
      list {
        shape {
        }
      }
    }
  }
}
node {
  name: "transpose/sub/y"
  op: "Const"
  attr {
    key: "_output_shapes"
    value {
      list {
        shape {
        }
      }
    }
  }
  attr {
    key: "dtype"
    value {
      type: DT_INT32
    }
  }
  attr {
    key: "value"
    value {
      tensor {
        dtype: DT_INT32
        tensor_shape {
        }
        int_val: 1
      }
    }
  }
}
node {
  name: "transpose/sub"
  op: "Sub"
  input: "transpose/Rank"
  input: "transpose/sub/y"
  attr {
    key: "T"
    value {
      type: DT_INT32
    }
  }
  attr {
    key: "_output_shapes"
    value {
      list {
        shape {
        }
      }
    }
  }
}
node {
  name: "transpose/Range/start"
  op: "Const"
  attr {
    key: "_output_shapes"
    value {
      list {
        shape {
        }
      }
    }
  }
  attr {
    key: "dtype"
    value {
      type: DT_INT32
    }
  }
  attr {
    key: "value"
    value {
      tensor {
        dtype: DT_INT32
        tensor_shape {
        }
        int_val: 0
      }
    }
  }
}
node {
  name: "transpose/Range/delta"
  op: "Const"
  attr {
    key: "_output_shapes"
    value {
      list {
        shape {
        }
      }
    }
  }
  attr {
    key: "dtype"
    value {
      type: DT_INT32
    }
  }
  attr {
    key: "value"
    value {
      tensor {
        dtype: DT_INT32
        tensor_shape {
        }
        int_val: 1
      }
    }
  }
}
node {
  name: "transpose/Range"
  op: "Range"
  input: "transpose/Range/start"
  input: "transpose/Rank"
  input: "transpose/Range/delta"
  attr {
    key: "Tidx"
    value {
      type: DT_INT32
    }
  }
  attr {
    key: "_output_shapes"
    value {
      list {
        shape {
          dim {
            size: -1
          }
        }
      }
    }
  }
}
node {
  name: "transpose/sub_1"
  op: "Sub"
  input: "transpose/sub"
  input: "transpose/Range"
  attr {
    key: "T"
    value {
      type: DT_INT32
    }
  }
  attr {
    key: "_output_shapes"
    value {
      list {
        shape {
          dim {
            size: -1
          }
        }
      }
    }
  }
}
node {
  name: "transpose"
  op: "Transpose"
  input: "model/fc_1/dense/BiasAdd"
  input: "transpose/sub_1"
  attr {
    key: "T"
    value {
      type: DT_FLOAT
    }
  }
  attr {
    key: "Tperm"
    value {
      type: DT_INT32
    }
  }
  attr {
    key: "_output_shapes"
    value {
      list {
        shape {
          dim {
            size: 64
          }
          dim {
            size: -1
          }
        }
      }
    }
  }
}
node {
  name: "MatMul"
  op: "MatMul"
  input: "model/fc_1/dense/BiasAdd"
  input: "transpose"
  attr {
    key: "T"
    value {
      type: DT_FLOAT
    }
  }
  attr {
    key: "_output_shapes"
    value {
      list {
        shape {
          dim {
            size: -1
          }
          dim {
            size: -1
          }
        }
      }
    }
  }
  attr {
    key: "transpose_a"
    value {
      b: false
    }
  }
  attr {
    key: "transpose_b"
    value {
      b: false
    }
  }
}
node {
  name: "DiagPart"
  op: "DiagPart"
  input: "MatMul"
  attr {
    key: "T"
    value {
      type: DT_FLOAT
    }
  }
  attr {
    key: "_output_shapes"
    value {
      list {
        shape {
          dim {
            size: -1
          }
        }
      }
    }
  }
}
node {
  name: "ExpandDims/dim"
  op: "Const"
  attr {
    key: "_output_shapes"
    value {
      list {
        shape {
        }
      }
    }
  }
  attr {
    key: "dtype"
    value {
      type: DT_INT32
    }
  }
  attr {
    key: "value"
    value {
      tensor {
        dtype: DT_INT32
        tensor_shape {
        }
        int_val: 1
      }
    }
  }
}
node {
  name: "ExpandDims"
  op: "ExpandDims"
  input: "DiagPart"
  input: "ExpandDims/dim"
  attr {
    key: "T"
    value {
      type: DT_FLOAT
    }
  }
  attr {
    key: "Tdim"
    value {
      type: DT_INT32
    }
  }
  attr {
    key: "_output_shapes"
    value {
      list {
        shape {
          dim {
            size: -1
          }
          dim {
            size: 1
          }
        }
      }
    }
  }
}
node {
  name: "mul/x"
  op: "Const"
  attr {
    key: "_output_shapes"
    value {
      list {
        shape {
        }
      }
    }
  }
  attr {
    key: "dtype"
    value {
      type: DT_FLOAT
    }
  }
  attr {
    key: "value"
    value {
      tensor {
        dtype: DT_FLOAT
        tensor_shape {
        }
        float_val: 2.0
      }
    }
  }
}
node {
  name: "mul"
  op: "Mul"
  input: "mul/x"
  input: "MatMul"
  attr {
    key: "T"
    value {
      type: DT_FLOAT
    }
  }
  attr {
    key: "_output_shapes"
    value {
      list {
        shape {
          dim {
            size: -1
          }
          dim {
            size: -1
          }
        }
      }
    }
  }
}
node {
  name: "sub"
  op: "Sub"
  input: "ExpandDims"
  input: "mul"
  attr {
    key: "T"
    value {
      type: DT_FLOAT
    }
  }
  attr {
    key: "_output_shapes"
    value {
      list {
        shape {
          dim {
            size: -1
          }
          dim {
            size: -1
          }
        }
      }
    }
  }
}
node {
  name: "ExpandDims_1/dim"
  op: "Const"
  attr {
    key: "_output_shapes"
    value {
      list {
        shape {
        }
      }
    }
  }
  attr {
    key: "dtype"
    value {
      type: DT_INT32
    }
  }
  attr {
    key: "value"
    value {
      tensor {
        dtype: DT_INT32
        tensor_shape {
        }
        int_val: 0
      }
    }
  }
}
node {
  name: "ExpandDims_1"
  op: "ExpandDims"
  input: "DiagPart"
  input: "ExpandDims_1/dim"
  attr {
    key: "T"
    value {
      type: DT_FLOAT
    }
  }
  attr {
    key: "Tdim"
    value {
      type: DT_INT32
    }
  }
  attr {
    key: "_output_shapes"
    value {
      list {
        shape {
          dim {
            size: 1
          }
          dim {
            size: -1
          }
        }
      }
    }
  }
}
node {
  name: "add"
  op: "Add"
  input: "sub"
  input: "ExpandDims_1"
  attr {
    key: "T"
    value {
      type: DT_FLOAT
    }
  }
  attr {
    key: "_output_shapes"
    value {
      list {
        shape {
          dim {
            size: -1
          }
          dim {
            size: -1
          }
        }
      }
    }
  }
}
node {
  name: "Maximum/y"
  op: "Const"
  attr {
    key: "_output_shapes"
    value {
      list {
        shape {
        }
      }
    }
  }
  attr {
    key: "dtype"
    value {
      type: DT_FLOAT
    }
  }
  attr {
    key: "value"
    value {
      tensor {
        dtype: DT_FLOAT
        tensor_shape {
        }
        float_val: 0.0
      }
    }
  }
}
node {
  name: "Maximum"
  op: "Maximum"
  input: "add"
  input: "Maximum/y"
  attr {
    key: "T"
    value {
      type: DT_FLOAT
    }
  }
  attr {
    key: "_output_shapes"
    value {
      list {
        shape {
          dim {
            size: -1
          }
          dim {
            size: -1
          }
        }
      }
    }
  }
}
node {
  name: "Equal/y"
  op: "Const"
  attr {
    key: "_output_shapes"
    value {
      list {
        shape {
        }
      }
    }
  }
  attr {
    key: "dtype"
    value {
      type: DT_FLOAT
    }
  }
  attr {
    key: "value"
    value {
      tensor {
        dtype: DT_FLOAT
        tensor_shape {
        }
        float_val: 0.0
      }
    }
  }
}
node {
  name: "Equal"
  op: "Equal"
  input: "Maximum"
  input: "Equal/y"
  attr {
    key: "T"
    value {
      type: DT_FLOAT
    }
  }
  attr {
    key: "_output_shapes"
    value {
      list {
        shape {
          dim {
            size: -1
          }
          dim {
            size: -1
          }
        }
      }
    }
  }
}
node {
  name: "ToFloat"
  op: "Cast"
  input: "Equal"
  attr {
    key: "DstT"
    value {
      type: DT_FLOAT
    }
  }
  attr {
    key: "SrcT"
    value {
      type: DT_BOOL
    }
  }
  attr {
    key: "_output_shapes"
    value {
      list {
        shape {
          dim {
            size: -1
          }
          dim {
            size: -1
          }
        }
      }
    }
  }
}
node {
  name: "mul_1/y"
  op: "Const"
  attr {
    key: "_output_shapes"
    value {
      list {
        shape {
        }
      }
    }
  }
  attr {
    key: "dtype"
    value {
      type: DT_FLOAT
    }
  }
  attr {
    key: "value"
    value {
      tensor {
        dtype: DT_FLOAT
        tensor_shape {
        }
        float_val: 1.0000000168623835e-16
      }
    }
  }
}
node {
  name: "mul_1"
  op: "Mul"
  input: "ToFloat"
  input: "mul_1/y"
  attr {
    key: "T"
    value {
      type: DT_FLOAT
    }
  }
  attr {
    key: "_output_shapes"
    value {
      list {
        shape {
          dim {
            size: -1
          }
          dim {
            size: -1
          }
        }
      }
    }
  }
}
node {
  name: "add_1"
  op: "Add"
  input: "Maximum"
  input: "mul_1"
  attr {
    key: "T"
    value {
      type: DT_FLOAT
    }
  }
  attr {
    key: "_output_shapes"
    value {
      list {
        shape {
          dim {
            size: -1
          }
          dim {
            size: -1
          }
        }
      }
    }
  }
}
node {
  name: "Sqrt"
  op: "Sqrt"
  input: "add_1"
  attr {
    key: "T"
    value {
      type: DT_FLOAT
    }
  }
  attr {
    key: "_output_shapes"
    value {
      list {
        shape {
          dim {
            size: -1
          }
          dim {
            size: -1
          }
        }
      }
    }
  }
}
node {
  name: "sub_1/x"
  op: "Const"
  attr {
    key: "_output_shapes"
    value {
      list {
        shape {
        }
      }
    }
  }
  attr {
    key: "dtype"
    value {
      type: DT_FLOAT
    }
  }
  attr {
    key: "value"
    value {
      tensor {
        dtype: DT_FLOAT
        tensor_shape {
        }
        float_val: 1.0
      }
    }
  }
}
node {
  name: "sub_1"
  op: "Sub"
  input: "sub_1/x"
  input: "ToFloat"
  attr {
    key: "T"
    value {
      type: DT_FLOAT
    }
  }
  attr {
    key: "_output_shapes"
    value {
      list {
        shape {
          dim {
            size: -1
          }
          dim {
            size: -1
          }
        }
      }
    }
  }
}
node {
  name: "mul_2"
  op: "Mul"
  input: "Sqrt"
  input: "sub_1"
  attr {
    key: "T"
    value {
      type: DT_FLOAT
    }
  }
  attr {
    key: "_output_shapes"
    value {
      list {
        shape {
          dim {
            size: -1
          }
          dim {
            size: -1
          }
        }
      }
    }
  }
}
node {
  name: "ExpandDims_2/dim"
  op: "Const"
  attr {
    key: "_output_shapes"
    value {
      list {
        shape {
        }
      }
    }
  }
  attr {
    key: "dtype"
    value {
      type: DT_INT32
    }
  }
  attr {
    key: "value"
    value {
      tensor {
        dtype: DT_INT32
        tensor_shape {
        }
        int_val: 2
      }
    }
  }
}
node {
  name: "ExpandDims_2"
  op: "ExpandDims"
  input: "mul_2"
  input: "ExpandDims_2/dim"
  attr {
    key: "T"
    value {
      type: DT_FLOAT
    }
  }
  attr {
    key: "Tdim"
    value {
      type: DT_INT32
    }
  }
  attr {
    key: "_output_shapes"
    value {
      list {
        shape {
          dim {
            size: -1
          }
          dim {
            size: -1
          }
          dim {
            size: 1
          }
        }
      }
    }
  }
}
node {
  name: "ExpandDims_3/dim"
  op: "Const"
  attr {
    key: "_output_shapes"
    value {
      list {
        shape {
        }
      }
    }
  }
  attr {
    key: "dtype"
    value {
      type: DT_INT32
    }
  }
  attr {
    key: "value"
    value {
      tensor {
        dtype: DT_INT32
        tensor_shape {
        }
        int_val: 1
      }
    }
  }
}
node {
  name: "ExpandDims_3"
  op: "ExpandDims"
  input: "mul_2"
  input: "ExpandDims_3/dim"
  attr {
    key: "T"
    value {
      type: DT_FLOAT
    }
  }
  attr {
    key: "Tdim"
    value {
      type: DT_INT32
    }
  }
  attr {
    key: "_output_shapes"
    value {
      list {
        shape {
          dim {
            size: -1
          }
          dim {
            size: 1
          }
          dim {
            size: -1
          }
        }
      }
    }
  }
}
node {
  name: "sub_2"
  op: "Sub"
  input: "ExpandDims_2"
  input: "ExpandDims_3"
  attr {
    key: "T"
    value {
      type: DT_FLOAT
    }
  }
  attr {
    key: "_output_shapes"
    value {
      list {
        shape {
          dim {
            size: -1
          }
          dim {
            size: -1
          }
          dim {
            size: -1
          }
        }
      }
    }
  }
}
node {
  name: "add_2/y"
  op: "Const"
  attr {
    key: "_output_shapes"
    value {
      list {
        shape {
        }
      }
    }
  }
  attr {
    key: "dtype"
    value {
      type: DT_FLOAT
    }
  }
  attr {
    key: "value"
    value {
      tensor {
        dtype: DT_FLOAT
        tensor_shape {
        }
        float_val: 0.5
      }
    }
  }
}
node {
  name: "add_2"
  op: "Add"
  input: "sub_2"
  input: "add_2/y"
  attr {
    key: "T"
    value {
      type: DT_FLOAT
    }
  }
  attr {
    key: "_output_shapes"
    value {
      list {
        shape {
          dim {
            size: -1
          }
          dim {
            size: -1
          }
          dim {
            size: -1
          }
        }
      }
    }
  }
}
node {
  name: "Shape"
  op: "Shape"
  input: "Cast"
  attr {
    key: "T"
    value {
      type: DT_INT64
    }
  }
  attr {
    key: "_output_shapes"
    value {
      list {
        shape {
          dim {
            size: 1
          }
        }
      }
    }
  }
  attr {
    key: "out_type"
    value {
      type: DT_INT32
    }
  }
}
node {
  name: "strided_slice/stack"
  op: "Const"
  attr {
    key: "_output_shapes"
    value {
      list {
        shape {
          dim {
            size: 1
          }
        }
      }
    }
  }
  attr {
    key: "dtype"
    value {
      type: DT_INT32
    }
  }
  attr {
    key: "value"
    value {
      tensor {
        dtype: DT_INT32
        tensor_shape {
          dim {
            size: 1
          }
        }
        int_val: 0
      }
    }
  }
}
node {
  name: "strided_slice/stack_1"
  op: "Const"
  attr {
    key: "_output_shapes"
    value {
      list {
        shape {
          dim {
            size: 1
          }
        }
      }
    }
  }
  attr {
    key: "dtype"
    value {
      type: DT_INT32
    }
  }
  attr {
    key: "value"
    value {
      tensor {
        dtype: DT_INT32
        tensor_shape {
          dim {
            size: 1
          }
        }
        int_val: 1
      }
    }
  }
}
node {
  name: "strided_slice/stack_2"
  op: "Const"
  attr {
    key: "_output_shapes"
    value {
      list {
        shape {
          dim {
            size: 1
          }
        }
      }
    }
  }
  attr {
    key: "dtype"
    value {
      type: DT_INT32
    }
  }
  attr {
    key: "value"
    value {
      tensor {
        dtype: DT_INT32
        tensor_shape {
          dim {
            size: 1
          }
        }
        int_val: 1
      }
    }
  }
}
node {
  name: "strided_slice"
  op: "StridedSlice"
  input: "Shape"
  input: "strided_slice/stack"
  input: "strided_slice/stack_1"
  input: "strided_slice/stack_2"
  attr {
    key: "Index"
    value {
      type: DT_INT32
    }
  }
  attr {
    key: "T"
    value {
      type: DT_INT32
    }
  }
  attr {
    key: "_output_shapes"
    value {
      list {
        shape {
        }
      }
    }
  }
  attr {
    key: "begin_mask"
    value {
      i: 0
    }
  }
  attr {
    key: "ellipsis_mask"
    value {
      i: 0
    }
  }
  attr {
    key: "end_mask"
    value {
      i: 0
    }
  }
  attr {
    key: "new_axis_mask"
    value {
      i: 0
    }
  }
  attr {
    key: "shrink_axis_mask"
    value {
      i: 1
    }
  }
}
node {
  name: "eye/shape"
  op: "Const"
  attr {
    key: "_output_shapes"
    value {
      list {
        shape {
          dim {
          }
        }
      }
    }
  }
  attr {
    key: "dtype"
    value {
      type: DT_INT32
    }
  }
  attr {
    key: "value"
    value {
      tensor {
        dtype: DT_INT32
        tensor_shape {
          dim {
          }
        }
      }
    }
  }
}
node {
  name: "eye/Minimum"
  op: "Minimum"
  input: "strided_slice"
  input: "strided_slice"
  attr {
    key: "T"
    value {
      type: DT_INT32
    }
  }
  attr {
    key: "_output_shapes"
    value {
      list {
        shape {
        }
      }
    }
  }
}
node {
  name: "eye/concat/values_1"
  op: "Pack"
  input: "eye/Minimum"
  attr {
    key: "N"
    value {
      i: 1
    }
  }
  attr {
    key: "T"
    value {
      type: DT_INT32
    }
  }
  attr {
    key: "_output_shapes"
    value {
      list {
        shape {
          dim {
            size: 1
          }
        }
      }
    }
  }
  attr {
    key: "axis"
    value {
      i: 0
    }
  }
}
node {
  name: "eye/concat/axis"
  op: "Const"
  attr {
    key: "_output_shapes"
    value {
      list {
        shape {
        }
      }
    }
  }
  attr {
    key: "dtype"
    value {
      type: DT_INT32
    }
  }
  attr {
    key: "value"
    value {
      tensor {
        dtype: DT_INT32
        tensor_shape {
        }
        int_val: 0
      }
    }
  }
}
node {
  name: "eye/concat"
  op: "ConcatV2"
  input: "eye/shape"
  input: "eye/concat/values_1"
  input: "eye/concat/axis"
  attr {
    key: "N"
    value {
      i: 2
    }
  }
  attr {
    key: "T"
    value {
      type: DT_INT32
    }
  }
  attr {
    key: "Tidx"
    value {
      type: DT_INT32
    }
  }
  attr {
    key: "_output_shapes"
    value {
      list {
        shape {
          dim {
            size: 1
          }
        }
      }
    }
  }
}
node {
  name: "eye/ones/Const"
  op: "Const"
  attr {
    key: "_output_shapes"
    value {
      list {
        shape {
        }
      }
    }
  }
  attr {
    key: "dtype"
    value {
      type: DT_FLOAT
    }
  }
  attr {
    key: "value"
    value {
      tensor {
        dtype: DT_FLOAT
        tensor_shape {
        }
        float_val: 1.0
      }
    }
  }
}
node {
  name: "eye/ones"
  op: "Fill"
  input: "eye/concat"
  input: "eye/ones/Const"
  attr {
    key: "T"
    value {
      type: DT_FLOAT
    }
  }
  attr {
    key: "_output_shapes"
    value {
      list {
        shape {
          dim {
            size: -1
          }
        }
      }
    }
  }
  attr {
    key: "index_type"
    value {
      type: DT_INT32
    }
  }
}
node {
  name: "eye/MatrixDiag"
  op: "MatrixDiag"
  input: "eye/ones"
  attr {
    key: "T"
    value {
      type: DT_FLOAT
    }
  }
  attr {
    key: "_output_shapes"
    value {
      list {
        shape {
          dim {
            size: -1
          }
          dim {
            size: -1
          }
        }
      }
    }
  }
}
node {
  name: "Cast_1"
  op: "Cast"
  input: "eye/MatrixDiag"
  attr {
    key: "DstT"
    value {
      type: DT_BOOL
    }
  }
  attr {
    key: "SrcT"
    value {
      type: DT_FLOAT
    }
  }
  attr {
    key: "_output_shapes"
    value {
      list {
        shape {
          dim {
            size: -1
          }
          dim {
            size: -1
          }
        }
      }
    }
  }
}
node {
  name: "LogicalNot"
  op: "LogicalNot"
  input: "Cast_1"
  attr {
    key: "_output_shapes"
    value {
      list {
        shape {
          dim {
            size: -1
          }
          dim {
            size: -1
          }
        }
      }
    }
  }
}
node {
  name: "ExpandDims_4/dim"
  op: "Const"
  attr {
    key: "_output_shapes"
    value {
      list {
        shape {
        }
      }
    }
  }
  attr {
    key: "dtype"
    value {
      type: DT_INT32
    }
  }
  attr {
    key: "value"
    value {
      tensor {
        dtype: DT_INT32
        tensor_shape {
        }
        int_val: 2
      }
    }
  }
}
node {
  name: "ExpandDims_4"
  op: "ExpandDims"
  input: "LogicalNot"
  input: "ExpandDims_4/dim"
  attr {
    key: "T"
    value {
      type: DT_BOOL
    }
  }
  attr {
    key: "Tdim"
    value {
      type: DT_INT32
    }
  }
  attr {
    key: "_output_shapes"
    value {
      list {
        shape {
          dim {
            size: -1
          }
          dim {
            size: -1
          }
          dim {
            size: 1
          }
        }
      }
    }
  }
}
node {
  name: "ExpandDims_5/dim"
  op: "Const"
  attr {
    key: "_output_shapes"
    value {
      list {
        shape {
        }
      }
    }
  }
  attr {
    key: "dtype"
    value {
      type: DT_INT32
    }
  }
  attr {
    key: "value"
    value {
      tensor {
        dtype: DT_INT32
        tensor_shape {
        }
        int_val: 1
      }
    }
  }
}
node {
  name: "ExpandDims_5"
  op: "ExpandDims"
  input: "LogicalNot"
  input: "ExpandDims_5/dim"
  attr {
    key: "T"
    value {
      type: DT_BOOL
    }
  }
  attr {
    key: "Tdim"
    value {
      type: DT_INT32
    }
  }
  attr {
    key: "_output_shapes"
    value {
      list {
        shape {
          dim {
            size: -1
          }
          dim {
            size: 1
          }
          dim {
            size: -1
          }
        }
      }
    }
  }
}
node {
  name: "ExpandDims_6/dim"
  op: "Const"
  attr {
    key: "_output_shapes"
    value {
      list {
        shape {
        }
      }
    }
  }
  attr {
    key: "dtype"
    value {
      type: DT_INT32
    }
  }
  attr {
    key: "value"
    value {
      tensor {
        dtype: DT_INT32
        tensor_shape {
        }
        int_val: 0
      }
    }
  }
}
node {
  name: "ExpandDims_6"
  op: "ExpandDims"
  input: "LogicalNot"
  input: "ExpandDims_6/dim"
  attr {
    key: "T"
    value {
      type: DT_BOOL
    }
  }
  attr {
    key: "Tdim"
    value {
      type: DT_INT32
    }
  }
  attr {
    key: "_output_shapes"
    value {
      list {
        shape {
          dim {
            size: 1
          }
          dim {
            size: -1
          }
          dim {
            size: -1
          }
        }
      }
    }
  }
}
node {
  name: "LogicalAnd"
  op: "LogicalAnd"
  input: "ExpandDims_4"
  input: "ExpandDims_5"
  attr {
    key: "_output_shapes"
    value {
      list {
        shape {
          dim {
            size: -1
          }
          dim {
            size: -1
          }
          dim {
            size: -1
          }
        }
      }
    }
  }
}
node {
  name: "LogicalAnd_1"
  op: "LogicalAnd"
  input: "LogicalAnd"
  input: "ExpandDims_6"
  attr {
    key: "_output_shapes"
    value {
      list {
        shape {
          dim {
            size: -1
          }
          dim {
            size: -1
          }
          dim {
            size: -1
          }
        }
      }
    }
  }
}
node {
  name: "ExpandDims_7/dim"
  op: "Const"
  attr {
    key: "_output_shapes"
    value {
      list {
        shape {
        }
      }
    }
  }
  attr {
    key: "dtype"
    value {
      type: DT_INT32
    }
  }
  attr {
    key: "value"
    value {
      tensor {
        dtype: DT_INT32
        tensor_shape {
        }
        int_val: 0
      }
    }
  }
}
node {
  name: "ExpandDims_7"
  op: "ExpandDims"
  input: "Cast"
  input: "ExpandDims_7/dim"
  attr {
    key: "T"
    value {
      type: DT_INT64
    }
  }
  attr {
    key: "Tdim"
    value {
      type: DT_INT32
    }
  }
  attr {
    key: "_output_shapes"
    value {
      list {
        shape {
          dim {
            size: 1
          }
          dim {
            size: -1
          }
        }
      }
    }
  }
}
node {
  name: "ExpandDims_8/dim"
  op: "Const"
  attr {
    key: "_output_shapes"
    value {
      list {
        shape {
        }
      }
    }
  }
  attr {
    key: "dtype"
    value {
      type: DT_INT32
    }
  }
  attr {
    key: "value"
    value {
      tensor {
        dtype: DT_INT32
        tensor_shape {
        }
        int_val: 1
      }
    }
  }
}
node {
  name: "ExpandDims_8"
  op: "ExpandDims"
  input: "Cast"
  input: "ExpandDims_8/dim"
  attr {
    key: "T"
    value {
      type: DT_INT64
    }
  }
  attr {
    key: "Tdim"
    value {
      type: DT_INT32
    }
  }
  attr {
    key: "_output_shapes"
    value {
      list {
        shape {
          dim {
            size: -1
          }
          dim {
            size: 1
          }
        }
      }
    }
  }
}
node {
  name: "Equal_1"
  op: "Equal"
  input: "ExpandDims_7"
  input: "ExpandDims_8"
  attr {
    key: "T"
    value {
      type: DT_INT64
    }
  }
  attr {
    key: "_output_shapes"
    value {
      list {
        shape {
          dim {
            size: -1
          }
          dim {
            size: -1
          }
        }
      }
    }
  }
}
node {
  name: "ExpandDims_9/dim"
  op: "Const"
  attr {
    key: "_output_shapes"
    value {
      list {
        shape {
        }
      }
    }
  }
  attr {
    key: "dtype"
    value {
      type: DT_INT32
    }
  }
  attr {
    key: "value"
    value {
      tensor {
        dtype: DT_INT32
        tensor_shape {
        }
        int_val: 2
      }
    }
  }
}
node {
  name: "ExpandDims_9"
  op: "ExpandDims"
  input: "Equal_1"
  input: "ExpandDims_9/dim"
  attr {
    key: "T"
    value {
      type: DT_BOOL
    }
  }
  attr {
    key: "Tdim"
    value {
      type: DT_INT32
    }
  }
  attr {
    key: "_output_shapes"
    value {
      list {
        shape {
          dim {
            size: -1
          }
          dim {
            size: -1
          }
          dim {
            size: 1
          }
        }
      }
    }
  }
}
node {
  name: "ExpandDims_10/dim"
  op: "Const"
  attr {
    key: "_output_shapes"
    value {
      list {
        shape {
        }
      }
    }
  }
  attr {
    key: "dtype"
    value {
      type: DT_INT32
    }
  }
  attr {
    key: "value"
    value {
      tensor {
        dtype: DT_INT32
        tensor_shape {
        }
        int_val: 1
      }
    }
  }
}
node {
  name: "ExpandDims_10"
  op: "ExpandDims"
  input: "Equal_1"
  input: "ExpandDims_10/dim"
  attr {
    key: "T"
    value {
      type: DT_BOOL
    }
  }
  attr {
    key: "Tdim"
    value {
      type: DT_INT32
    }
  }
  attr {
    key: "_output_shapes"
    value {
      list {
        shape {
          dim {
            size: -1
          }
          dim {
            size: 1
          }
          dim {
            size: -1
          }
        }
      }
    }
  }
}
node {
  name: "LogicalNot_1"
  op: "LogicalNot"
  input: "ExpandDims_10"
  attr {
    key: "_output_shapes"
    value {
      list {
        shape {
          dim {
            size: -1
          }
          dim {
            size: 1
          }
          dim {
            size: -1
          }
        }
      }
    }
  }
}
node {
  name: "LogicalAnd_2"
  op: "LogicalAnd"
  input: "ExpandDims_9"
  input: "LogicalNot_1"
  attr {
    key: "_output_shapes"
    value {
      list {
        shape {
          dim {
            size: -1
          }
          dim {
            size: -1
          }
          dim {
            size: -1
          }
        }
      }
    }
  }
}
node {
  name: "LogicalAnd_3"
  op: "LogicalAnd"
  input: "LogicalAnd_1"
  input: "LogicalAnd_2"
  attr {
    key: "_output_shapes"
    value {
      list {
        shape {
          dim {
            size: -1
          }
          dim {
            size: -1
          }
          dim {
            size: -1
          }
        }
      }
    }
  }
}
node {
  name: "ToFloat_1"
  op: "Cast"
  input: "LogicalAnd_3"
  attr {
    key: "DstT"
    value {
      type: DT_FLOAT
    }
  }
  attr {
    key: "SrcT"
    value {
      type: DT_BOOL
    }
  }
  attr {
    key: "_output_shapes"
    value {
      list {
        shape {
          dim {
            size: -1
          }
          dim {
            size: -1
          }
          dim {
            size: -1
          }
        }
      }
    }
  }
}
node {
  name: "Mul_3"
  op: "Mul"
  input: "ToFloat_1"
  input: "add_2"
  attr {
    key: "T"
    value {
      type: DT_FLOAT
    }
  }
  attr {
    key: "_output_shapes"
    value {
      list {
        shape {
          dim {
            size: -1
          }
          dim {
            size: -1
          }
          dim {
            size: -1
          }
        }
      }
    }
  }
}
node {
  name: "Maximum_1/y"
  op: "Const"
  attr {
    key: "_output_shapes"
    value {
      list {
        shape {
        }
      }
    }
  }
  attr {
    key: "dtype"
    value {
      type: DT_FLOAT
    }
  }
  attr {
    key: "value"
    value {
      tensor {
        dtype: DT_FLOAT
        tensor_shape {
        }
        float_val: 0.0
      }
    }
  }
}
node {
  name: "Maximum_1"
  op: "Maximum"
  input: "Mul_3"
  input: "Maximum_1/y"
  attr {
    key: "T"
    value {
      type: DT_FLOAT
    }
  }
  attr {
    key: "_output_shapes"
    value {
      list {
        shape {
          dim {
            size: -1
          }
          dim {
            size: -1
          }
          dim {
            size: -1
          }
        }
      }
    }
  }
}
node {
  name: "Greater/y"
  op: "Const"
  attr {
    key: "_output_shapes"
    value {
      list {
        shape {
        }
      }
    }
  }
  attr {
    key: "dtype"
    value {
      type: DT_FLOAT
    }
  }
  attr {
    key: "value"
    value {
      tensor {
        dtype: DT_FLOAT
        tensor_shape {
        }
        float_val: 1.0000000168623835e-16
      }
    }
  }
}
node {
  name: "Greater"
  op: "Greater"
  input: "Maximum_1"
  input: "Greater/y"
  attr {
    key: "T"
    value {
      type: DT_FLOAT
    }
  }
  attr {
    key: "_output_shapes"
    value {
      list {
        shape {
          dim {
            size: -1
          }
          dim {
            size: -1
          }
          dim {
            size: -1
          }
        }
      }
    }
  }
}
node {
  name: "ToFloat_2"
  op: "Cast"
  input: "Greater"
  attr {
    key: "DstT"
    value {
      type: DT_FLOAT
    }
  }
  attr {
    key: "SrcT"
    value {
      type: DT_BOOL
    }
  }
  attr {
    key: "_output_shapes"
    value {
      list {
        shape {
          dim {
            size: -1
          }
          dim {
            size: -1
          }
          dim {
            size: -1
          }
        }
      }
    }
  }
}
node {
  name: "Const"
  op: "Const"
  attr {
    key: "_output_shapes"
    value {
      list {
        shape {
          dim {
            size: 3
          }
        }
      }
    }
  }
  attr {
    key: "dtype"
    value {
      type: DT_INT32
    }
  }
  attr {
    key: "value"
    value {
      tensor {
        dtype: DT_INT32
        tensor_shape {
          dim {
            size: 3
          }
        }
        tensor_content: "\000\000\000\000\001\000\000\000\002\000\000\000"
      }
    }
  }
}
node {
  name: "Sum"
  op: "Sum"
  input: "ToFloat_2"
  input: "Const"
  attr {
    key: "T"
    value {
      type: DT_FLOAT
    }
  }
  attr {
    key: "Tidx"
    value {
      type: DT_INT32
    }
  }
  attr {
    key: "_output_shapes"
    value {
      list {
        shape {
        }
      }
    }
  }
  attr {
    key: "keep_dims"
    value {
      b: false
    }
  }
}
node {
  name: "Const_1"
  op: "Const"
  attr {
    key: "_output_shapes"
    value {
      list {
        shape {
          dim {
            size: 3
          }
        }
      }
    }
  }
  attr {
    key: "dtype"
    value {
      type: DT_INT32
    }
  }
  attr {
    key: "value"
    value {
      tensor {
        dtype: DT_INT32
        tensor_shape {
          dim {
            size: 3
          }
        }
        tensor_content: "\000\000\000\000\001\000\000\000\002\000\000\000"
      }
    }
  }
}
node {
  name: "Sum_1"
  op: "Sum"
  input: "ToFloat_1"
  input: "Const_1"
  attr {
    key: "T"
    value {
      type: DT_FLOAT
    }
  }
  attr {
    key: "Tidx"
    value {
      type: DT_INT32
    }
  }
  attr {
    key: "_output_shapes"
    value {
      list {
        shape {
        }
      }
    }
  }
  attr {
    key: "keep_dims"
    value {
      b: false
    }
  }
}
node {
  name: "add_3/y"
  op: "Const"
  attr {
    key: "_output_shapes"
    value {
      list {
        shape {
        }
      }
    }
  }
  attr {
    key: "dtype"
    value {
      type: DT_FLOAT
    }
  }
  attr {
    key: "value"
    value {
      tensor {
        dtype: DT_FLOAT
        tensor_shape {
        }
        float_val: 1.0000000168623835e-16
      }
    }
  }
}
node {
  name: "add_3"
  op: "Add"
  input: "Sum_1"
  input: "add_3/y"
  attr {
    key: "T"
    value {
      type: DT_FLOAT
    }
  }
  attr {
    key: "_output_shapes"
    value {
      list {
        shape {
        }
      }
    }
  }
}
node {
  name: "truediv"
  op: "RealDiv"
  input: "Sum"
  input: "add_3"
  attr {
    key: "T"
    value {
      type: DT_FLOAT
    }
  }
  attr {
    key: "_output_shapes"
    value {
      list {
        shape {
        }
      }
    }
  }
}
node {
  name: "Const_2"
  op: "Const"
  attr {
    key: "_output_shapes"
    value {
      list {
        shape {
          dim {
            size: 3
          }
        }
      }
    }
  }
  attr {
    key: "dtype"
    value {
      type: DT_INT32
    }
  }
  attr {
    key: "value"
    value {
      tensor {
        dtype: DT_INT32
        tensor_shape {
          dim {
            size: 3
          }
        }
        tensor_content: "\000\000\000\000\001\000\000\000\002\000\000\000"
      }
    }
  }
}
node {
  name: "Sum_2"
  op: "Sum"
  input: "Maximum_1"
  input: "Const_2"
  attr {
    key: "T"
    value {
      type: DT_FLOAT
    }
  }
  attr {
    key: "Tidx"
    value {
      type: DT_INT32
    }
  }
  attr {
    key: "_output_shapes"
    value {
      list {
        shape {
        }
      }
    }
  }
  attr {
    key: "keep_dims"
    value {
      b: false
    }
  }
}
node {
  name: "add_4/y"
  op: "Const"
  attr {
    key: "_output_shapes"
    value {
      list {
        shape {
        }
      }
    }
  }
  attr {
    key: "dtype"
    value {
      type: DT_FLOAT
    }
  }
  attr {
    key: "value"
    value {
      tensor {
        dtype: DT_FLOAT
        tensor_shape {
        }
        float_val: 1.0000000168623835e-16
      }
    }
  }
}
node {
  name: "add_4"
  op: "Add"
  input: "Sum"
  input: "add_4/y"
  attr {
    key: "T"
    value {
      type: DT_FLOAT
    }
  }
  attr {
    key: "_output_shapes"
    value {
      list {
        shape {
        }
      }
    }
  }
}
node {
  name: "truediv_1"
  op: "RealDiv"
  input: "Sum_2"
  input: "add_4"
  attr {
    key: "T"
    value {
      type: DT_FLOAT
    }
  }
  attr {
    key: "_output_shapes"
    value {
      list {
        shape {
        }
      }
    }
  }
}
node {
  name: "norm/mul"
  op: "Mul"
  input: "model/fc_1/dense/BiasAdd"
  input: "model/fc_1/dense/BiasAdd"
  attr {
    key: "T"
    value {
      type: DT_FLOAT
    }
  }
  attr {
    key: "_output_shapes"
    value {
      list {
        shape {
          dim {
            size: -1
          }
          dim {
            size: 64
          }
        }
      }
    }
  }
}
node {
  name: "norm/Sum/reduction_indices"
  op: "Const"
  attr {
    key: "_output_shapes"
    value {
      list {
        shape {
          dim {
            size: 1
          }
        }
      }
    }
  }
  attr {
    key: "dtype"
    value {
      type: DT_INT32
    }
  }
  attr {
    key: "value"
    value {
      tensor {
        dtype: DT_INT32
        tensor_shape {
          dim {
            size: 1
          }
        }
        int_val: 1
      }
    }
  }
}
node {
  name: "norm/Sum"
  op: "Sum"
  input: "norm/mul"
  input: "norm/Sum/reduction_indices"
  attr {
    key: "T"
    value {
      type: DT_FLOAT
    }
  }
  attr {
    key: "Tidx"
    value {
      type: DT_INT32
    }
  }
  attr {
    key: "_output_shapes"
    value {
      list {
        shape {
          dim {
            size: -1
          }
          dim {
            size: 1
          }
        }
      }
    }
  }
  attr {
    key: "keep_dims"
    value {
      b: true
    }
  }
}
node {
  name: "norm/Sqrt"
  op: "Sqrt"
  input: "norm/Sum"
  attr {
    key: "T"
    value {
      type: DT_FLOAT
    }
  }
  attr {
    key: "_output_shapes"
    value {
      list {
        shape {
          dim {
            size: -1
          }
          dim {
            size: 1
          }
        }
      }
    }
  }
}
node {
  name: "norm/Squeeze"
  op: "Squeeze"
  input: "norm/Sqrt"
  attr {
    key: "T"
    value {
      type: DT_FLOAT
    }
  }
  attr {
    key: "_output_shapes"
    value {
      list {
        shape {
          dim {
            size: -1
          }
        }
      }
    }
  }
  attr {
    key: "squeeze_dims"
    value {
      list {
        i: 1
      }
    }
  }
}
node {
  name: "Const_3"
  op: "Const"
  attr {
    key: "_output_shapes"
    value {
      list {
        shape {
          dim {
            size: 1
          }
        }
      }
    }
  }
  attr {
    key: "dtype"
    value {
      type: DT_INT32
    }
  }
  attr {
    key: "value"
    value {
      tensor {
        dtype: DT_INT32
        tensor_shape {
          dim {
            size: 1
          }
        }
        int_val: 0
      }
    }
  }
}
node {
  name: "Mean"
  op: "Mean"
  input: "norm/Squeeze"
  input: "Const_3"
  attr {
    key: "T"
    value {
      type: DT_FLOAT
    }
  }
  attr {
    key: "Tidx"
    value {
      type: DT_INT32
    }
  }
  attr {
    key: "_output_shapes"
    value {
      list {
        shape {
        }
      }
    }
  }
  attr {
    key: "keep_dims"
    value {
      b: false
    }
  }
}
node {
  name: "embedding_mean_norm/tags"
  op: "Const"
  attr {
    key: "_output_shapes"
    value {
      list {
        shape {
        }
      }
    }
  }
  attr {
    key: "dtype"
    value {
      type: DT_STRING
    }
  }
  attr {
    key: "value"
    value {
      tensor {
        dtype: DT_STRING
        tensor_shape {
        }
        string_val: "embedding_mean_norm"
      }
    }
  }
}
node {
  name: "embedding_mean_norm"
  op: "ScalarSummary"
  input: "embedding_mean_norm/tags"
  input: "Mean"
  attr {
    key: "T"
    value {
      type: DT_FLOAT
    }
  }
  attr {
    key: "_output_shapes"
    value {
      list {
        shape {
        }
      }
    }
  }
}
node {
  name: "metrics/mean/total/Initializer/zeros"
  op: "Const"
  attr {
    key: "_class"
    value {
      list {
        s: "loc:@metrics/mean/total"
      }
    }
  }
  attr {
    key: "_output_shapes"
    value {
      list {
        shape {
        }
      }
    }
  }
  attr {
    key: "dtype"
    value {
      type: DT_FLOAT
    }
  }
  attr {
    key: "value"
    value {
      tensor {
        dtype: DT_FLOAT
        tensor_shape {
        }
        float_val: 0.0
      }
    }
  }
}
node {
  name: "metrics/mean/total"
  op: "VariableV2"
  attr {
    key: "_class"
    value {
      list {
        s: "loc:@metrics/mean/total"
      }
    }
  }
  attr {
    key: "_output_shapes"
    value {
      list {
        shape {
        }
      }
    }
  }
  attr {
    key: "container"
    value {
      s: ""
    }
  }
  attr {
    key: "dtype"
    value {
      type: DT_FLOAT
    }
  }
  attr {
    key: "shape"
    value {
      shape {
      }
    }
  }
  attr {
    key: "shared_name"
    value {
      s: ""
    }
  }
}
node {
  name: "metrics/mean/total/Assign"
  op: "Assign"
  input: "metrics/mean/total"
  input: "metrics/mean/total/Initializer/zeros"
  attr {
    key: "T"
    value {
      type: DT_FLOAT
    }
  }
  attr {
    key: "_class"
    value {
      list {
        s: "loc:@metrics/mean/total"
      }
    }
  }
  attr {
    key: "_output_shapes"
    value {
      list {
        shape {
        }
      }
    }
  }
  attr {
    key: "use_locking"
    value {
      b: true
    }
  }
  attr {
    key: "validate_shape"
    value {
      b: true
    }
  }
}
node {
  name: "metrics/mean/total/read"
  op: "Identity"
  input: "metrics/mean/total"
  attr {
    key: "T"
    value {
      type: DT_FLOAT
    }
  }
  attr {
    key: "_class"
    value {
      list {
        s: "loc:@metrics/mean/total"
      }
    }
  }
  attr {
    key: "_output_shapes"
    value {
      list {
        shape {
        }
      }
    }
  }
}
node {
  name: "metrics/mean/count/Initializer/zeros"
  op: "Const"
  attr {
    key: "_class"
    value {
      list {
        s: "loc:@metrics/mean/count"
      }
    }
  }
  attr {
    key: "_output_shapes"
    value {
      list {
        shape {
        }
      }
    }
  }
  attr {
    key: "dtype"
    value {
      type: DT_FLOAT
    }
  }
  attr {
    key: "value"
    value {
      tensor {
        dtype: DT_FLOAT
        tensor_shape {
        }
        float_val: 0.0
      }
    }
  }
}
node {
  name: "metrics/mean/count"
  op: "VariableV2"
  attr {
    key: "_class"
    value {
      list {
        s: "loc:@metrics/mean/count"
      }
    }
  }
  attr {
    key: "_output_shapes"
    value {
      list {
        shape {
        }
      }
    }
  }
  attr {
    key: "container"
    value {
      s: ""
    }
  }
  attr {
    key: "dtype"
    value {
      type: DT_FLOAT
    }
  }
  attr {
    key: "shape"
    value {
      shape {
      }
    }
  }
  attr {
    key: "shared_name"
    value {
      s: ""
    }
  }
}
node {
  name: "metrics/mean/count/Assign"
  op: "Assign"
  input: "metrics/mean/count"
  input: "metrics/mean/count/Initializer/zeros"
  attr {
    key: "T"
    value {
      type: DT_FLOAT
    }
  }
  attr {
    key: "_class"
    value {
      list {
        s: "loc:@metrics/mean/count"
      }
    }
  }
  attr {
    key: "_output_shapes"
    value {
      list {
        shape {
        }
      }
    }
  }
  attr {
    key: "use_locking"
    value {
      b: true
    }
  }
  attr {
    key: "validate_shape"
    value {
      b: true
    }
  }
}
node {
  name: "metrics/mean/count/read"
  op: "Identity"
  input: "metrics/mean/count"
  attr {
    key: "T"
    value {
      type: DT_FLOAT
    }
  }
  attr {
    key: "_class"
    value {
      list {
        s: "loc:@metrics/mean/count"
      }
    }
  }
  attr {
    key: "_output_shapes"
    value {
      list {
        shape {
        }
      }
    }
  }
}
node {
  name: "metrics/mean/Size"
  op: "Const"
  attr {
    key: "_output_shapes"
    value {
      list {
        shape {
        }
      }
    }
  }
  attr {
    key: "dtype"
    value {
      type: DT_INT32
    }
  }
  attr {
    key: "value"
    value {
      tensor {
        dtype: DT_INT32
        tensor_shape {
        }
        int_val: 1
      }
    }
  }
}
node {
  name: "metrics/mean/ToFloat"
  op: "Cast"
  input: "metrics/mean/Size"
  attr {
    key: "DstT"
    value {
      type: DT_FLOAT
    }
  }
  attr {
    key: "SrcT"
    value {
      type: DT_INT32
    }
  }
  attr {
    key: "_output_shapes"
    value {
      list {
        shape {
        }
      }
    }
  }
}
node {
  name: "metrics/mean/Const"
  op: "Const"
  attr {
    key: "_output_shapes"
    value {
      list {
        shape {
          dim {
          }
        }
      }
    }
  }
  attr {
    key: "dtype"
    value {
      type: DT_INT32
    }
  }
  attr {
    key: "value"
    value {
      tensor {
        dtype: DT_INT32
        tensor_shape {
          dim {
          }
        }
      }
    }
  }
}
node {
  name: "metrics/mean/Sum"
  op: "Sum"
  input: "Mean"
  input: "metrics/mean/Const"
  attr {
    key: "T"
    value {
      type: DT_FLOAT
    }
  }
  attr {
    key: "Tidx"
    value {
      type: DT_INT32
    }
  }
  attr {
    key: "_output_shapes"
    value {
      list {
        shape {
        }
      }
    }
  }
  attr {
    key: "keep_dims"
    value {
      b: false
    }
  }
}
node {
  name: "metrics/mean/AssignAdd"
  op: "AssignAdd"
  input: "metrics/mean/total"
  input: "metrics/mean/Sum"
  attr {
    key: "T"
    value {
      type: DT_FLOAT
    }
  }
  attr {
    key: "_class"
    value {
      list {
        s: "loc:@metrics/mean/total"
      }
    }
  }
  attr {
    key: "_output_shapes"
    value {
      list {
        shape {
        }
      }
    }
  }
  attr {
    key: "use_locking"
    value {
      b: false
    }
  }
}
node {
  name: "metrics/mean/AssignAdd_1"
  op: "AssignAdd"
  input: "metrics/mean/count"
  input: "metrics/mean/ToFloat"
  input: "^Mean"
  attr {
    key: "T"
    value {
      type: DT_FLOAT
    }
  }
  attr {
    key: "_class"
    value {
      list {
        s: "loc:@metrics/mean/count"
      }
    }
  }
  attr {
    key: "_output_shapes"
    value {
      list {
        shape {
        }
      }
    }
  }
  attr {
    key: "use_locking"
    value {
      b: false
    }
  }
}
node {
  name: "metrics/mean/truediv"
  op: "RealDiv"
  input: "metrics/mean/total/read"
  input: "metrics/mean/count/read"
  attr {
    key: "T"
    value {
      type: DT_FLOAT
    }
  }
  attr {
    key: "_output_shapes"
    value {
      list {
        shape {
        }
      }
    }
  }
}
node {
  name: "metrics/mean/zeros_like"
  op: "Const"
  attr {
    key: "_output_shapes"
    value {
      list {
        shape {
        }
      }
    }
  }
  attr {
    key: "dtype"
    value {
      type: DT_FLOAT
    }
  }
  attr {
    key: "value"
    value {
      tensor {
        dtype: DT_FLOAT
        tensor_shape {
        }
        float_val: 0.0
      }
    }
  }
}
node {
  name: "metrics/mean/Greater"
  op: "Greater"
  input: "metrics/mean/count/read"
  input: "metrics/mean/zeros_like"
  attr {
    key: "T"
    value {
      type: DT_FLOAT
    }
  }
  attr {
    key: "_output_shapes"
    value {
      list {
        shape {
        }
      }
    }
  }
}
node {
  name: "metrics/mean/value"
  op: "Select"
  input: "metrics/mean/Greater"
  input: "metrics/mean/truediv"
  input: "metrics/mean/zeros_like"
  attr {
    key: "T"
    value {
      type: DT_FLOAT
    }
  }
  attr {
    key: "_output_shapes"
    value {
      list {
        shape {
        }
      }
    }
  }
}
node {
  name: "metrics/mean/truediv_1"
  op: "RealDiv"
  input: "metrics/mean/AssignAdd"
  input: "metrics/mean/AssignAdd_1"
  attr {
    key: "T"
    value {
      type: DT_FLOAT
    }
  }
  attr {
    key: "_output_shapes"
    value {
      list {
        shape {
        }
      }
    }
  }
}
node {
  name: "metrics/mean/zeros_like_1"
  op: "Const"
  attr {
    key: "_output_shapes"
    value {
      list {
        shape {
        }
      }
    }
  }
  attr {
    key: "dtype"
    value {
      type: DT_FLOAT
    }
  }
  attr {
    key: "value"
    value {
      tensor {
        dtype: DT_FLOAT
        tensor_shape {
        }
        float_val: 0.0
      }
    }
  }
}
node {
  name: "metrics/mean/Greater_1"
  op: "Greater"
  input: "metrics/mean/AssignAdd_1"
  input: "metrics/mean/zeros_like_1"
  attr {
    key: "T"
    value {
      type: DT_FLOAT
    }
  }
  attr {
    key: "_output_shapes"
    value {
      list {
        shape {
        }
      }
    }
  }
}
node {
  name: "metrics/mean/update_op"
  op: "Select"
  input: "metrics/mean/Greater_1"
  input: "metrics/mean/truediv_1"
  input: "metrics/mean/zeros_like_1"
  attr {
    key: "T"
    value {
      type: DT_FLOAT
    }
  }
  attr {
    key: "_output_shapes"
    value {
      list {
        shape {
        }
      }
    }
  }
}
node {
  name: "metrics/mean_1/total/Initializer/zeros"
  op: "Const"
  attr {
    key: "_class"
    value {
      list {
        s: "loc:@metrics/mean_1/total"
      }
    }
  }
  attr {
    key: "_output_shapes"
    value {
      list {
        shape {
        }
      }
    }
  }
  attr {
    key: "dtype"
    value {
      type: DT_FLOAT
    }
  }
  attr {
    key: "value"
    value {
      tensor {
        dtype: DT_FLOAT
        tensor_shape {
        }
        float_val: 0.0
      }
    }
  }
}
node {
  name: "metrics/mean_1/total"
  op: "VariableV2"
  attr {
    key: "_class"
    value {
      list {
        s: "loc:@metrics/mean_1/total"
      }
    }
  }
  attr {
    key: "_output_shapes"
    value {
      list {
        shape {
        }
      }
    }
  }
  attr {
    key: "container"
    value {
      s: ""
    }
  }
  attr {
    key: "dtype"
    value {
      type: DT_FLOAT
    }
  }
  attr {
    key: "shape"
    value {
      shape {
      }
    }
  }
  attr {
    key: "shared_name"
    value {
      s: ""
    }
  }
}
node {
  name: "metrics/mean_1/total/Assign"
  op: "Assign"
  input: "metrics/mean_1/total"
  input: "metrics/mean_1/total/Initializer/zeros"
  attr {
    key: "T"
    value {
      type: DT_FLOAT
    }
  }
  attr {
    key: "_class"
    value {
      list {
        s: "loc:@metrics/mean_1/total"
      }
    }
  }
  attr {
    key: "_output_shapes"
    value {
      list {
        shape {
        }
      }
    }
  }
  attr {
    key: "use_locking"
    value {
      b: true
    }
  }
  attr {
    key: "validate_shape"
    value {
      b: true
    }
  }
}
node {
  name: "metrics/mean_1/total/read"
  op: "Identity"
  input: "metrics/mean_1/total"
  attr {
    key: "T"
    value {
      type: DT_FLOAT
    }
  }
  attr {
    key: "_class"
    value {
      list {
        s: "loc:@metrics/mean_1/total"
      }
    }
  }
  attr {
    key: "_output_shapes"
    value {
      list {
        shape {
        }
      }
    }
  }
}
node {
  name: "metrics/mean_1/count/Initializer/zeros"
  op: "Const"
  attr {
    key: "_class"
    value {
      list {
        s: "loc:@metrics/mean_1/count"
      }
    }
  }
  attr {
    key: "_output_shapes"
    value {
      list {
        shape {
        }
      }
    }
  }
  attr {
    key: "dtype"
    value {
      type: DT_FLOAT
    }
  }
  attr {
    key: "value"
    value {
      tensor {
        dtype: DT_FLOAT
        tensor_shape {
        }
        float_val: 0.0
      }
    }
  }
}
node {
  name: "metrics/mean_1/count"
  op: "VariableV2"
  attr {
    key: "_class"
    value {
      list {
        s: "loc:@metrics/mean_1/count"
      }
    }
  }
  attr {
    key: "_output_shapes"
    value {
      list {
        shape {
        }
      }
    }
  }
  attr {
    key: "container"
    value {
      s: ""
    }
  }
  attr {
    key: "dtype"
    value {
      type: DT_FLOAT
    }
  }
  attr {
    key: "shape"
    value {
      shape {
      }
    }
  }
  attr {
    key: "shared_name"
    value {
      s: ""
    }
  }
}
node {
  name: "metrics/mean_1/count/Assign"
  op: "Assign"
  input: "metrics/mean_1/count"
  input: "metrics/mean_1/count/Initializer/zeros"
  attr {
    key: "T"
    value {
      type: DT_FLOAT
    }
  }
  attr {
    key: "_class"
    value {
      list {
        s: "loc:@metrics/mean_1/count"
      }
    }
  }
  attr {
    key: "_output_shapes"
    value {
      list {
        shape {
        }
      }
    }
  }
  attr {
    key: "use_locking"
    value {
      b: true
    }
  }
  attr {
    key: "validate_shape"
    value {
      b: true
    }
  }
}
node {
  name: "metrics/mean_1/count/read"
  op: "Identity"
  input: "metrics/mean_1/count"
  attr {
    key: "T"
    value {
      type: DT_FLOAT
    }
  }
  attr {
    key: "_class"
    value {
      list {
        s: "loc:@metrics/mean_1/count"
      }
    }
  }
  attr {
    key: "_output_shapes"
    value {
      list {
        shape {
        }
      }
    }
  }
}
node {
  name: "metrics/mean_1/Size"
  op: "Const"
  attr {
    key: "_output_shapes"
    value {
      list {
        shape {
        }
      }
    }
  }
  attr {
    key: "dtype"
    value {
      type: DT_INT32
    }
  }
  attr {
    key: "value"
    value {
      tensor {
        dtype: DT_INT32
        tensor_shape {
        }
        int_val: 1
      }
    }
  }
}
node {
  name: "metrics/mean_1/ToFloat"
  op: "Cast"
  input: "metrics/mean_1/Size"
  attr {
    key: "DstT"
    value {
      type: DT_FLOAT
    }
  }
  attr {
    key: "SrcT"
    value {
      type: DT_INT32
    }
  }
  attr {
    key: "_output_shapes"
    value {
      list {
        shape {
        }
      }
    }
  }
}
node {
  name: "metrics/mean_1/Const"
  op: "Const"
  attr {
    key: "_output_shapes"
    value {
      list {
        shape {
          dim {
          }
        }
      }
    }
  }
  attr {
    key: "dtype"
    value {
      type: DT_INT32
    }
  }
  attr {
    key: "value"
    value {
      tensor {
        dtype: DT_INT32
        tensor_shape {
          dim {
          }
        }
      }
    }
  }
}
node {
  name: "metrics/mean_1/Sum"
  op: "Sum"
  input: "truediv"
  input: "metrics/mean_1/Const"
  attr {
    key: "T"
    value {
      type: DT_FLOAT
    }
  }
  attr {
    key: "Tidx"
    value {
      type: DT_INT32
    }
  }
  attr {
    key: "_output_shapes"
    value {
      list {
        shape {
        }
      }
    }
  }
  attr {
    key: "keep_dims"
    value {
      b: false
    }
  }
}
node {
  name: "metrics/mean_1/AssignAdd"
  op: "AssignAdd"
  input: "metrics/mean_1/total"
  input: "metrics/mean_1/Sum"
  attr {
    key: "T"
    value {
      type: DT_FLOAT
    }
  }
  attr {
    key: "_class"
    value {
      list {
        s: "loc:@metrics/mean_1/total"
      }
    }
  }
  attr {
    key: "_output_shapes"
    value {
      list {
        shape {
        }
      }
    }
  }
  attr {
    key: "use_locking"
    value {
      b: false
    }
  }
}
node {
  name: "metrics/mean_1/AssignAdd_1"
  op: "AssignAdd"
  input: "metrics/mean_1/count"
  input: "metrics/mean_1/ToFloat"
  input: "^truediv"
  attr {
    key: "T"
    value {
      type: DT_FLOAT
    }
  }
  attr {
    key: "_class"
    value {
      list {
        s: "loc:@metrics/mean_1/count"
      }
    }
  }
  attr {
    key: "_output_shapes"
    value {
      list {
        shape {
        }
      }
    }
  }
  attr {
    key: "use_locking"
    value {
      b: false
    }
  }
}
node {
  name: "metrics/mean_1/truediv"
  op: "RealDiv"
  input: "metrics/mean_1/total/read"
  input: "metrics/mean_1/count/read"
  attr {
    key: "T"
    value {
      type: DT_FLOAT
    }
  }
  attr {
    key: "_output_shapes"
    value {
      list {
        shape {
        }
      }
    }
  }
}
node {
  name: "metrics/mean_1/zeros_like"
  op: "Const"
  attr {
    key: "_output_shapes"
    value {
      list {
        shape {
        }
      }
    }
  }
  attr {
    key: "dtype"
    value {
      type: DT_FLOAT
    }
  }
  attr {
    key: "value"
    value {
      tensor {
        dtype: DT_FLOAT
        tensor_shape {
        }
        float_val: 0.0
      }
    }
  }
}
node {
  name: "metrics/mean_1/Greater"
  op: "Greater"
  input: "metrics/mean_1/count/read"
  input: "metrics/mean_1/zeros_like"
  attr {
    key: "T"
    value {
      type: DT_FLOAT
    }
  }
  attr {
    key: "_output_shapes"
    value {
      list {
        shape {
        }
      }
    }
  }
}
node {
  name: "metrics/mean_1/value"
  op: "Select"
  input: "metrics/mean_1/Greater"
  input: "metrics/mean_1/truediv"
  input: "metrics/mean_1/zeros_like"
  attr {
    key: "T"
    value {
      type: DT_FLOAT
    }
  }
  attr {
    key: "_output_shapes"
    value {
      list {
        shape {
        }
      }
    }
  }
}
node {
  name: "metrics/mean_1/truediv_1"
  op: "RealDiv"
  input: "metrics/mean_1/AssignAdd"
  input: "metrics/mean_1/AssignAdd_1"
  attr {
    key: "T"
    value {
      type: DT_FLOAT
    }
  }
  attr {
    key: "_output_shapes"
    value {
      list {
        shape {
        }
      }
    }
  }
}
node {
  name: "metrics/mean_1/zeros_like_1"
  op: "Const"
  attr {
    key: "_output_shapes"
    value {
      list {
        shape {
        }
      }
    }
  }
  attr {
    key: "dtype"
    value {
      type: DT_FLOAT
    }
  }
  attr {
    key: "value"
    value {
      tensor {
        dtype: DT_FLOAT
        tensor_shape {
        }
        float_val: 0.0
      }
    }
  }
}
node {
  name: "metrics/mean_1/Greater_1"
  op: "Greater"
  input: "metrics/mean_1/AssignAdd_1"
  input: "metrics/mean_1/zeros_like_1"
  attr {
    key: "T"
    value {
      type: DT_FLOAT
    }
  }
  attr {
    key: "_output_shapes"
    value {
      list {
        shape {
        }
      }
    }
  }
}
node {
  name: "metrics/mean_1/update_op"
  op: "Select"
  input: "metrics/mean_1/Greater_1"
  input: "metrics/mean_1/truediv_1"
  input: "metrics/mean_1/zeros_like_1"
  attr {
    key: "T"
    value {
      type: DT_FLOAT
    }
  }
  attr {
    key: "_output_shapes"
    value {
      list {
        shape {
        }
      }
    }
  }
}
node {
  name: "loss/tags"
  op: "Const"
  attr {
    key: "_output_shapes"
    value {
      list {
        shape {
        }
      }
    }
  }
  attr {
    key: "dtype"
    value {
      type: DT_STRING
    }
  }
  attr {
    key: "value"
    value {
      tensor {
        dtype: DT_STRING
        tensor_shape {
        }
        string_val: "loss"
      }
    }
  }
}
node {
  name: "loss"
  op: "ScalarSummary"
  input: "loss/tags"
  input: "truediv_1"
  attr {
    key: "T"
    value {
      type: DT_FLOAT
    }
  }
  attr {
    key: "_output_shapes"
    value {
      list {
        shape {
        }
      }
    }
  }
}
node {
  name: "fraction_positive_triplets/tags"
  op: "Const"
  attr {
    key: "_output_shapes"
    value {
      list {
        shape {
        }
      }
    }
  }
  attr {
    key: "dtype"
    value {
      type: DT_STRING
    }
  }
  attr {
    key: "value"
    value {
      tensor {
        dtype: DT_STRING
        tensor_shape {
        }
        string_val: "fraction_positive_triplets"
      }
    }
  }
}
node {
  name: "fraction_positive_triplets"
  op: "ScalarSummary"
  input: "fraction_positive_triplets/tags"
  input: "truediv"
  attr {
    key: "T"
    value {
      type: DT_FLOAT
    }
  }
  attr {
    key: "_output_shapes"
    value {
      list {
        shape {
        }
      }
    }
  }
}
node {
  name: "train_image/tag"
  op: "Const"
  attr {
    key: "_output_shapes"
    value {
      list {
        shape {
        }
      }
    }
  }
  attr {
    key: "dtype"
    value {
      type: DT_STRING
    }
  }
  attr {
    key: "value"
    value {
      tensor {
        dtype: DT_STRING
        tensor_shape {
        }
        string_val: "train_image"
      }
    }
  }
}
node {
  name: "train_image"
  op: "ImageSummary"
  input: "train_image/tag"
  input: "Reshape"
  attr {
    key: "T"
    value {
      type: DT_FLOAT
    }
  }
  attr {
    key: "_output_shapes"
    value {
      list {
        shape {
        }
      }
    }
  }
  attr {
    key: "bad_color"
    value {
      tensor {
        dtype: DT_UINT8
        tensor_shape {
          dim {
            size: 4
          }
        }
        int_val: 255
        int_val: 0
        int_val: 0
        int_val: 255
      }
    }
  }
  attr {
    key: "max_images"
    value {
      i: 1
    }
  }
}
node {
  name: "gradients/Shape"
  op: "Const"
  attr {
    key: "_output_shapes"
    value {
      list {
        shape {
          dim {
          }
        }
      }
    }
  }
  attr {
    key: "dtype"
    value {
      type: DT_INT32
    }
  }
  attr {
    key: "value"
    value {
      tensor {
        dtype: DT_INT32
        tensor_shape {
          dim {
          }
        }
      }
    }
  }
}
node {
  name: "gradients/grad_ys_0"
  op: "Const"
  attr {
    key: "_output_shapes"
    value {
      list {
        shape {
        }
      }
    }
  }
  attr {
    key: "dtype"
    value {
      type: DT_FLOAT
    }
  }
  attr {
    key: "value"
    value {
      tensor {
        dtype: DT_FLOAT
        tensor_shape {
        }
        float_val: 1.0
      }
    }
  }
}
node {
  name: "gradients/Fill"
  op: "Fill"
  input: "gradients/Shape"
  input: "gradients/grad_ys_0"
  attr {
    key: "T"
    value {
      type: DT_FLOAT
    }
  }
  attr {
    key: "_output_shapes"
    value {
      list {
        shape {
        }
      }
    }
  }
  attr {
    key: "index_type"
    value {
      type: DT_INT32
    }
  }
}
node {
  name: "gradients/truediv_1_grad/Shape"
  op: "Const"
  attr {
    key: "_output_shapes"
    value {
      list {
        shape {
          dim {
          }
        }
      }
    }
  }
  attr {
    key: "dtype"
    value {
      type: DT_INT32
    }
  }
  attr {
    key: "value"
    value {
      tensor {
        dtype: DT_INT32
        tensor_shape {
          dim {
          }
        }
      }
    }
  }
}
node {
  name: "gradients/truediv_1_grad/Shape_1"
  op: "Const"
  attr {
    key: "_output_shapes"
    value {
      list {
        shape {
          dim {
          }
        }
      }
    }
  }
  attr {
    key: "dtype"
    value {
      type: DT_INT32
    }
  }
  attr {
    key: "value"
    value {
      tensor {
        dtype: DT_INT32
        tensor_shape {
          dim {
          }
        }
      }
    }
  }
}
node {
  name: "gradients/truediv_1_grad/BroadcastGradientArgs"
  op: "BroadcastGradientArgs"
  input: "gradients/truediv_1_grad/Shape"
  input: "gradients/truediv_1_grad/Shape_1"
  attr {
    key: "T"
    value {
      type: DT_INT32
    }
  }
  attr {
    key: "_output_shapes"
    value {
      list {
        shape {
          dim {
            size: -1
          }
        }
        shape {
          dim {
            size: -1
          }
        }
      }
    }
  }
}
node {
  name: "gradients/truediv_1_grad/RealDiv"
  op: "RealDiv"
  input: "gradients/Fill"
  input: "add_4"
  attr {
    key: "T"
    value {
      type: DT_FLOAT
    }
  }
  attr {
    key: "_output_shapes"
    value {
      list {
        shape {
        }
      }
    }
  }
}
node {
  name: "gradients/truediv_1_grad/Sum"
  op: "Sum"
  input: "gradients/truediv_1_grad/RealDiv"
  input: "gradients/truediv_1_grad/BroadcastGradientArgs"
  attr {
    key: "T"
    value {
      type: DT_FLOAT
    }
  }
  attr {
    key: "Tidx"
    value {
      type: DT_INT32
    }
  }
  attr {
    key: "_output_shapes"
    value {
      list {
        shape {
        }
      }
    }
  }
  attr {
    key: "keep_dims"
    value {
      b: false
    }
  }
}
node {
  name: "gradients/truediv_1_grad/Reshape"
  op: "Reshape"
  input: "gradients/truediv_1_grad/Sum"
  input: "gradients/truediv_1_grad/Shape"
  attr {
    key: "T"
    value {
      type: DT_FLOAT
    }
  }
  attr {
    key: "Tshape"
    value {
      type: DT_INT32
    }
  }
  attr {
    key: "_output_shapes"
    value {
      list {
        shape {
        }
      }
    }
  }
}
node {
  name: "gradients/truediv_1_grad/Neg"
  op: "Neg"
  input: "Sum_2"
  attr {
    key: "T"
    value {
      type: DT_FLOAT
    }
  }
  attr {
    key: "_output_shapes"
    value {
      list {
        shape {
        }
      }
    }
  }
}
node {
  name: "gradients/truediv_1_grad/RealDiv_1"
  op: "RealDiv"
  input: "gradients/truediv_1_grad/Neg"
  input: "add_4"
  attr {
    key: "T"
    value {
      type: DT_FLOAT
    }
  }
  attr {
    key: "_output_shapes"
    value {
      list {
        shape {
        }
      }
    }
  }
}
node {
  name: "gradients/truediv_1_grad/RealDiv_2"
  op: "RealDiv"
  input: "gradients/truediv_1_grad/RealDiv_1"
  input: "add_4"
  attr {
    key: "T"
    value {
      type: DT_FLOAT
    }
  }
  attr {
    key: "_output_shapes"
    value {
      list {
        shape {
        }
      }
    }
  }
}
node {
  name: "gradients/truediv_1_grad/mul"
  op: "Mul"
  input: "gradients/Fill"
  input: "gradients/truediv_1_grad/RealDiv_2"
  attr {
    key: "T"
    value {
      type: DT_FLOAT
    }
  }
  attr {
    key: "_output_shapes"
    value {
      list {
        shape {
        }
      }
    }
  }
}
node {
  name: "gradients/truediv_1_grad/Sum_1"
  op: "Sum"
  input: "gradients/truediv_1_grad/mul"
  input: "gradients/truediv_1_grad/BroadcastGradientArgs:1"
  attr {
    key: "T"
    value {
      type: DT_FLOAT
    }
  }
  attr {
    key: "Tidx"
    value {
      type: DT_INT32
    }
  }
  attr {
    key: "_output_shapes"
    value {
      list {
        shape {
        }
      }
    }
  }
  attr {
    key: "keep_dims"
    value {
      b: false
    }
  }
}
node {
  name: "gradients/truediv_1_grad/Reshape_1"
  op: "Reshape"
  input: "gradients/truediv_1_grad/Sum_1"
  input: "gradients/truediv_1_grad/Shape_1"
  attr {
    key: "T"
    value {
      type: DT_FLOAT
    }
  }
  attr {
    key: "Tshape"
    value {
      type: DT_INT32
    }
  }
  attr {
    key: "_output_shapes"
    value {
      list {
        shape {
        }
      }
    }
  }
}
node {
  name: "gradients/truediv_1_grad/tuple/group_deps"
  op: "NoOp"
  input: "^gradients/truediv_1_grad/Reshape"
  input: "^gradients/truediv_1_grad/Reshape_1"
}
node {
  name: "gradients/truediv_1_grad/tuple/control_dependency"
  op: "Identity"
  input: "gradients/truediv_1_grad/Reshape"
  input: "^gradients/truediv_1_grad/tuple/group_deps"
  attr {
    key: "T"
    value {
      type: DT_FLOAT
    }
  }
  attr {
    key: "_class"
    value {
      list {
        s: "loc:@gradients/truediv_1_grad/Reshape"
      }
    }
  }
  attr {
    key: "_output_shapes"
    value {
      list {
        shape {
        }
      }
    }
  }
}
node {
  name: "gradients/truediv_1_grad/tuple/control_dependency_1"
  op: "Identity"
  input: "gradients/truediv_1_grad/Reshape_1"
  input: "^gradients/truediv_1_grad/tuple/group_deps"
  attr {
    key: "T"
    value {
      type: DT_FLOAT
    }
  }
  attr {
    key: "_class"
    value {
      list {
        s: "loc:@gradients/truediv_1_grad/Reshape_1"
      }
    }
  }
  attr {
    key: "_output_shapes"
    value {
      list {
        shape {
        }
      }
    }
  }
}
node {
  name: "gradients/Sum_2_grad/Reshape/shape"
  op: "Const"
  attr {
    key: "_output_shapes"
    value {
      list {
        shape {
          dim {
            size: 3
          }
        }
      }
    }
  }
  attr {
    key: "dtype"
    value {
      type: DT_INT32
    }
  }
  attr {
    key: "value"
    value {
      tensor {
        dtype: DT_INT32
        tensor_shape {
          dim {
            size: 3
          }
        }
        tensor_content: "\001\000\000\000\001\000\000\000\001\000\000\000"
      }
    }
  }
}
node {
  name: "gradients/Sum_2_grad/Reshape"
  op: "Reshape"
  input: "gradients/truediv_1_grad/tuple/control_dependency"
  input: "gradients/Sum_2_grad/Reshape/shape"
  attr {
    key: "T"
    value {
      type: DT_FLOAT
    }
  }
  attr {
    key: "Tshape"
    value {
      type: DT_INT32
    }
  }
  attr {
    key: "_output_shapes"
    value {
      list {
        shape {
          dim {
            size: 1
          }
          dim {
            size: 1
          }
          dim {
            size: 1
          }
        }
      }
    }
  }
}
node {
  name: "gradients/Sum_2_grad/Shape"
  op: "Shape"
  input: "Maximum_1"
  attr {
    key: "T"
    value {
      type: DT_FLOAT
    }
  }
  attr {
    key: "_output_shapes"
    value {
      list {
        shape {
          dim {
            size: 3
          }
        }
      }
    }
  }
  attr {
    key: "out_type"
    value {
      type: DT_INT32
    }
  }
}
node {
  name: "gradients/Sum_2_grad/Tile"
  op: "Tile"
  input: "gradients/Sum_2_grad/Reshape"
  input: "gradients/Sum_2_grad/Shape"
  attr {
    key: "T"
    value {
      type: DT_FLOAT
    }
  }
  attr {
    key: "Tmultiples"
    value {
      type: DT_INT32
    }
  }
  attr {
    key: "_output_shapes"
    value {
      list {
        shape {
          dim {
            size: -1
          }
          dim {
            size: -1
          }
          dim {
            size: -1
          }
        }
      }
    }
  }
}
node {
  name: "gradients/Maximum_1_grad/Shape"
  op: "Shape"
  input: "Mul_3"
  attr {
    key: "T"
    value {
      type: DT_FLOAT
    }
  }
  attr {
    key: "_output_shapes"
    value {
      list {
        shape {
          dim {
            size: 3
          }
        }
      }
    }
  }
  attr {
    key: "out_type"
    value {
      type: DT_INT32
    }
  }
}
node {
  name: "gradients/Maximum_1_grad/Shape_1"
  op: "Const"
  attr {
    key: "_output_shapes"
    value {
      list {
        shape {
          dim {
          }
        }
      }
    }
  }
  attr {
    key: "dtype"
    value {
      type: DT_INT32
    }
  }
  attr {
    key: "value"
    value {
      tensor {
        dtype: DT_INT32
        tensor_shape {
          dim {
          }
        }
      }
    }
  }
}
node {
  name: "gradients/Maximum_1_grad/Shape_2"
  op: "Shape"
  input: "gradients/Sum_2_grad/Tile"
  attr {
    key: "T"
    value {
      type: DT_FLOAT
    }
  }
  attr {
    key: "_output_shapes"
    value {
      list {
        shape {
          dim {
            size: 3
          }
        }
      }
    }
  }
  attr {
    key: "out_type"
    value {
      type: DT_INT32
    }
  }
}
node {
  name: "gradients/Maximum_1_grad/zeros/Const"
  op: "Const"
  attr {
    key: "_output_shapes"
    value {
      list {
        shape {
        }
      }
    }
  }
  attr {
    key: "dtype"
    value {
      type: DT_FLOAT
    }
  }
  attr {
    key: "value"
    value {
      tensor {
        dtype: DT_FLOAT
        tensor_shape {
        }
        float_val: 0.0
      }
    }
  }
}
node {
  name: "gradients/Maximum_1_grad/zeros"
  op: "Fill"
  input: "gradients/Maximum_1_grad/Shape_2"
  input: "gradients/Maximum_1_grad/zeros/Const"
  attr {
    key: "T"
    value {
      type: DT_FLOAT
    }
  }
  attr {
    key: "_output_shapes"
    value {
      list {
        shape {
          dim {
            size: -1
          }
          dim {
            size: -1
          }
          dim {
            size: -1
          }
        }
      }
    }
  }
  attr {
    key: "index_type"
    value {
      type: DT_INT32
    }
  }
}
node {
  name: "gradients/Maximum_1_grad/GreaterEqual"
  op: "GreaterEqual"
  input: "Mul_3"
  input: "Maximum_1/y"
  attr {
    key: "T"
    value {
      type: DT_FLOAT
    }
  }
  attr {
    key: "_output_shapes"
    value {
      list {
        shape {
          dim {
            size: -1
          }
          dim {
            size: -1
          }
          dim {
            size: -1
          }
        }
      }
    }
  }
}
node {
  name: "gradients/Maximum_1_grad/BroadcastGradientArgs"
  op: "BroadcastGradientArgs"
  input: "gradients/Maximum_1_grad/Shape"
  input: "gradients/Maximum_1_grad/Shape_1"
  attr {
    key: "T"
    value {
      type: DT_INT32
    }
  }
  attr {
    key: "_output_shapes"
    value {
      list {
        shape {
          dim {
            size: -1
          }
        }
        shape {
          dim {
            size: -1
          }
        }
      }
    }
  }
}
node {
  name: "gradients/Maximum_1_grad/Select"
  op: "Select"
  input: "gradients/Maximum_1_grad/GreaterEqual"
  input: "gradients/Sum_2_grad/Tile"
  input: "gradients/Maximum_1_grad/zeros"
  attr {
    key: "T"
    value {
      type: DT_FLOAT
    }
  }
  attr {
    key: "_output_shapes"
    value {
      list {
        shape {
          dim {
            size: -1
          }
          dim {
            size: -1
          }
          dim {
            size: -1
          }
        }
      }
    }
  }
}
node {
  name: "gradients/Maximum_1_grad/Select_1"
  op: "Select"
  input: "gradients/Maximum_1_grad/GreaterEqual"
  input: "gradients/Maximum_1_grad/zeros"
  input: "gradients/Sum_2_grad/Tile"
  attr {
    key: "T"
    value {
      type: DT_FLOAT
    }
  }
  attr {
    key: "_output_shapes"
    value {
      list {
        shape {
          dim {
            size: -1
          }
          dim {
            size: -1
          }
          dim {
            size: -1
          }
        }
      }
    }
  }
}
node {
  name: "gradients/Maximum_1_grad/Sum"
  op: "Sum"
  input: "gradients/Maximum_1_grad/Select"
  input: "gradients/Maximum_1_grad/BroadcastGradientArgs"
  attr {
    key: "T"
    value {
      type: DT_FLOAT
    }
  }
  attr {
    key: "Tidx"
    value {
      type: DT_INT32
    }
  }
  attr {
    key: "_output_shapes"
    value {
      list {
        shape {
          unknown_rank: true
        }
      }
    }
  }
  attr {
    key: "keep_dims"
    value {
      b: false
    }
  }
}
node {
  name: "gradients/Maximum_1_grad/Reshape"
  op: "Reshape"
  input: "gradients/Maximum_1_grad/Sum"
  input: "gradients/Maximum_1_grad/Shape"
  attr {
    key: "T"
    value {
      type: DT_FLOAT
    }
  }
  attr {
    key: "Tshape"
    value {
      type: DT_INT32
    }
  }
  attr {
    key: "_output_shapes"
    value {
      list {
        shape {
          dim {
            size: -1
          }
          dim {
            size: -1
          }
          dim {
            size: -1
          }
        }
      }
    }
  }
}
node {
  name: "gradients/Maximum_1_grad/Sum_1"
  op: "Sum"
  input: "gradients/Maximum_1_grad/Select_1"
  input: "gradients/Maximum_1_grad/BroadcastGradientArgs:1"
  attr {
    key: "T"
    value {
      type: DT_FLOAT
    }
  }
  attr {
    key: "Tidx"
    value {
      type: DT_INT32
    }
  }
  attr {
    key: "_output_shapes"
    value {
      list {
        shape {
          unknown_rank: true
        }
      }
    }
  }
  attr {
    key: "keep_dims"
    value {
      b: false
    }
  }
}
node {
  name: "gradients/Maximum_1_grad/Reshape_1"
  op: "Reshape"
  input: "gradients/Maximum_1_grad/Sum_1"
  input: "gradients/Maximum_1_grad/Shape_1"
  attr {
    key: "T"
    value {
      type: DT_FLOAT
    }
  }
  attr {
    key: "Tshape"
    value {
      type: DT_INT32
    }
  }
  attr {
    key: "_output_shapes"
    value {
      list {
        shape {
        }
      }
    }
  }
}
node {
  name: "gradients/Maximum_1_grad/tuple/group_deps"
  op: "NoOp"
  input: "^gradients/Maximum_1_grad/Reshape"
  input: "^gradients/Maximum_1_grad/Reshape_1"
}
node {
  name: "gradients/Maximum_1_grad/tuple/control_dependency"
  op: "Identity"
  input: "gradients/Maximum_1_grad/Reshape"
  input: "^gradients/Maximum_1_grad/tuple/group_deps"
  attr {
    key: "T"
    value {
      type: DT_FLOAT
    }
  }
  attr {
    key: "_class"
    value {
      list {
        s: "loc:@gradients/Maximum_1_grad/Reshape"
      }
    }
  }
  attr {
    key: "_output_shapes"
    value {
      list {
        shape {
          dim {
            size: -1
          }
          dim {
            size: -1
          }
          dim {
            size: -1
          }
        }
      }
    }
  }
}
node {
  name: "gradients/Maximum_1_grad/tuple/control_dependency_1"
  op: "Identity"
  input: "gradients/Maximum_1_grad/Reshape_1"
  input: "^gradients/Maximum_1_grad/tuple/group_deps"
  attr {
    key: "T"
    value {
      type: DT_FLOAT
    }
  }
  attr {
    key: "_class"
    value {
      list {
        s: "loc:@gradients/Maximum_1_grad/Reshape_1"
      }
    }
  }
  attr {
    key: "_output_shapes"
    value {
      list {
        shape {
        }
      }
    }
  }
}
node {
  name: "gradients/Mul_3_grad/Shape"
  op: "Shape"
  input: "ToFloat_1"
  attr {
    key: "T"
    value {
      type: DT_FLOAT
    }
  }
  attr {
    key: "_output_shapes"
    value {
      list {
        shape {
          dim {
            size: 3
          }
        }
      }
    }
  }
  attr {
    key: "out_type"
    value {
      type: DT_INT32
    }
  }
}
node {
  name: "gradients/Mul_3_grad/Shape_1"
  op: "Shape"
  input: "add_2"
  attr {
    key: "T"
    value {
      type: DT_FLOAT
    }
  }
  attr {
    key: "_output_shapes"
    value {
      list {
        shape {
          dim {
            size: 3
          }
        }
      }
    }
  }
  attr {
    key: "out_type"
    value {
      type: DT_INT32
    }
  }
}
node {
  name: "gradients/Mul_3_grad/BroadcastGradientArgs"
  op: "BroadcastGradientArgs"
  input: "gradients/Mul_3_grad/Shape"
  input: "gradients/Mul_3_grad/Shape_1"
  attr {
    key: "T"
    value {
      type: DT_INT32
    }
  }
  attr {
    key: "_output_shapes"
    value {
      list {
        shape {
          dim {
            size: -1
          }
        }
        shape {
          dim {
            size: -1
          }
        }
      }
    }
  }
}
node {
  name: "gradients/Mul_3_grad/Mul"
  op: "Mul"
  input: "gradients/Maximum_1_grad/tuple/control_dependency"
  input: "add_2"
  attr {
    key: "T"
    value {
      type: DT_FLOAT
    }
  }
  attr {
    key: "_output_shapes"
    value {
      list {
        shape {
          dim {
            size: -1
          }
          dim {
            size: -1
          }
          dim {
            size: -1
          }
        }
      }
    }
  }
}
node {
  name: "gradients/Mul_3_grad/Sum"
  op: "Sum"
  input: "gradients/Mul_3_grad/Mul"
  input: "gradients/Mul_3_grad/BroadcastGradientArgs"
  attr {
    key: "T"
    value {
      type: DT_FLOAT
    }
  }
  attr {
    key: "Tidx"
    value {
      type: DT_INT32
    }
  }
  attr {
    key: "_output_shapes"
    value {
      list {
        shape {
          unknown_rank: true
        }
      }
    }
  }
  attr {
    key: "keep_dims"
    value {
      b: false
    }
  }
}
node {
  name: "gradients/Mul_3_grad/Reshape"
  op: "Reshape"
  input: "gradients/Mul_3_grad/Sum"
  input: "gradients/Mul_3_grad/Shape"
  attr {
    key: "T"
    value {
      type: DT_FLOAT
    }
  }
  attr {
    key: "Tshape"
    value {
      type: DT_INT32
    }
  }
  attr {
    key: "_output_shapes"
    value {
      list {
        shape {
          dim {
            size: -1
          }
          dim {
            size: -1
          }
          dim {
            size: -1
          }
        }
      }
    }
  }
}
node {
  name: "gradients/Mul_3_grad/Mul_1"
  op: "Mul"
  input: "ToFloat_1"
  input: "gradients/Maximum_1_grad/tuple/control_dependency"
  attr {
    key: "T"
    value {
      type: DT_FLOAT
    }
  }
  attr {
    key: "_output_shapes"
    value {
      list {
        shape {
          dim {
            size: -1
          }
          dim {
            size: -1
          }
          dim {
            size: -1
          }
        }
      }
    }
  }
}
node {
  name: "gradients/Mul_3_grad/Sum_1"
  op: "Sum"
  input: "gradients/Mul_3_grad/Mul_1"
  input: "gradients/Mul_3_grad/BroadcastGradientArgs:1"
  attr {
    key: "T"
    value {
      type: DT_FLOAT
    }
  }
  attr {
    key: "Tidx"
    value {
      type: DT_INT32
    }
  }
  attr {
    key: "_output_shapes"
    value {
      list {
        shape {
          unknown_rank: true
        }
      }
    }
  }
  attr {
    key: "keep_dims"
    value {
      b: false
    }
  }
}
node {
  name: "gradients/Mul_3_grad/Reshape_1"
  op: "Reshape"
  input: "gradients/Mul_3_grad/Sum_1"
  input: "gradients/Mul_3_grad/Shape_1"
  attr {
    key: "T"
    value {
      type: DT_FLOAT
    }
  }
  attr {
    key: "Tshape"
    value {
      type: DT_INT32
    }
  }
  attr {
    key: "_output_shapes"
    value {
      list {
        shape {
          dim {
            size: -1
          }
          dim {
            size: -1
          }
          dim {
            size: -1
          }
        }
      }
    }
  }
}
node {
  name: "gradients/Mul_3_grad/tuple/group_deps"
  op: "NoOp"
  input: "^gradients/Mul_3_grad/Reshape"
  input: "^gradients/Mul_3_grad/Reshape_1"
}
node {
  name: "gradients/Mul_3_grad/tuple/control_dependency"
  op: "Identity"
  input: "gradients/Mul_3_grad/Reshape"
  input: "^gradients/Mul_3_grad/tuple/group_deps"
  attr {
    key: "T"
    value {
      type: DT_FLOAT
    }
  }
  attr {
    key: "_class"
    value {
      list {
        s: "loc:@gradients/Mul_3_grad/Reshape"
      }
    }
  }
  attr {
    key: "_output_shapes"
    value {
      list {
        shape {
          dim {
            size: -1
          }
          dim {
            size: -1
          }
          dim {
            size: -1
          }
        }
      }
    }
  }
}
node {
  name: "gradients/Mul_3_grad/tuple/control_dependency_1"
  op: "Identity"
  input: "gradients/Mul_3_grad/Reshape_1"
  input: "^gradients/Mul_3_grad/tuple/group_deps"
  attr {
    key: "T"
    value {
      type: DT_FLOAT
    }
  }
  attr {
    key: "_class"
    value {
      list {
        s: "loc:@gradients/Mul_3_grad/Reshape_1"
      }
    }
  }
  attr {
    key: "_output_shapes"
    value {
      list {
        shape {
          dim {
            size: -1
          }
          dim {
            size: -1
          }
          dim {
            size: -1
          }
        }
      }
    }
  }
}
node {
  name: "gradients/add_2_grad/Shape"
  op: "Shape"
  input: "sub_2"
  attr {
    key: "T"
    value {
      type: DT_FLOAT
    }
  }
  attr {
    key: "_output_shapes"
    value {
      list {
        shape {
          dim {
            size: 3
          }
        }
      }
    }
  }
  attr {
    key: "out_type"
    value {
      type: DT_INT32
    }
  }
}
node {
  name: "gradients/add_2_grad/Shape_1"
  op: "Const"
  attr {
    key: "_output_shapes"
    value {
      list {
        shape {
          dim {
          }
        }
      }
    }
  }
  attr {
    key: "dtype"
    value {
      type: DT_INT32
    }
  }
  attr {
    key: "value"
    value {
      tensor {
        dtype: DT_INT32
        tensor_shape {
          dim {
          }
        }
      }
    }
  }
}
node {
  name: "gradients/add_2_grad/BroadcastGradientArgs"
  op: "BroadcastGradientArgs"
  input: "gradients/add_2_grad/Shape"
  input: "gradients/add_2_grad/Shape_1"
  attr {
    key: "T"
    value {
      type: DT_INT32
    }
  }
  attr {
    key: "_output_shapes"
    value {
      list {
        shape {
          dim {
            size: -1
          }
        }
        shape {
          dim {
            size: -1
          }
        }
      }
    }
  }
}
node {
  name: "gradients/add_2_grad/Sum"
  op: "Sum"
  input: "gradients/Mul_3_grad/tuple/control_dependency_1"
  input: "gradients/add_2_grad/BroadcastGradientArgs"
  attr {
    key: "T"
    value {
      type: DT_FLOAT
    }
  }
  attr {
    key: "Tidx"
    value {
      type: DT_INT32
    }
  }
  attr {
    key: "_output_shapes"
    value {
      list {
        shape {
          unknown_rank: true
        }
      }
    }
  }
  attr {
    key: "keep_dims"
    value {
      b: false
    }
  }
}
node {
  name: "gradients/add_2_grad/Reshape"
  op: "Reshape"
  input: "gradients/add_2_grad/Sum"
  input: "gradients/add_2_grad/Shape"
  attr {
    key: "T"
    value {
      type: DT_FLOAT
    }
  }
  attr {
    key: "Tshape"
    value {
      type: DT_INT32
    }
  }
  attr {
    key: "_output_shapes"
    value {
      list {
        shape {
          dim {
            size: -1
          }
          dim {
            size: -1
          }
          dim {
            size: -1
          }
        }
      }
    }
  }
}
node {
  name: "gradients/add_2_grad/Sum_1"
  op: "Sum"
  input: "gradients/Mul_3_grad/tuple/control_dependency_1"
  input: "gradients/add_2_grad/BroadcastGradientArgs:1"
  attr {
    key: "T"
    value {
      type: DT_FLOAT
    }
  }
  attr {
    key: "Tidx"
    value {
      type: DT_INT32
    }
  }
  attr {
    key: "_output_shapes"
    value {
      list {
        shape {
          unknown_rank: true
        }
      }
    }
  }
  attr {
    key: "keep_dims"
    value {
      b: false
    }
  }
}
node {
  name: "gradients/add_2_grad/Reshape_1"
  op: "Reshape"
  input: "gradients/add_2_grad/Sum_1"
  input: "gradients/add_2_grad/Shape_1"
  attr {
    key: "T"
    value {
      type: DT_FLOAT
    }
  }
  attr {
    key: "Tshape"
    value {
      type: DT_INT32
    }
  }
  attr {
    key: "_output_shapes"
    value {
      list {
        shape {
        }
      }
    }
  }
}
node {
  name: "gradients/add_2_grad/tuple/group_deps"
  op: "NoOp"
  input: "^gradients/add_2_grad/Reshape"
  input: "^gradients/add_2_grad/Reshape_1"
}
node {
  name: "gradients/add_2_grad/tuple/control_dependency"
  op: "Identity"
  input: "gradients/add_2_grad/Reshape"
  input: "^gradients/add_2_grad/tuple/group_deps"
  attr {
    key: "T"
    value {
      type: DT_FLOAT
    }
  }
  attr {
    key: "_class"
    value {
      list {
        s: "loc:@gradients/add_2_grad/Reshape"
      }
    }
  }
  attr {
    key: "_output_shapes"
    value {
      list {
        shape {
          dim {
            size: -1
          }
          dim {
            size: -1
          }
          dim {
            size: -1
          }
        }
      }
    }
  }
}
node {
  name: "gradients/add_2_grad/tuple/control_dependency_1"
  op: "Identity"
  input: "gradients/add_2_grad/Reshape_1"
  input: "^gradients/add_2_grad/tuple/group_deps"
  attr {
    key: "T"
    value {
      type: DT_FLOAT
    }
  }
  attr {
    key: "_class"
    value {
      list {
        s: "loc:@gradients/add_2_grad/Reshape_1"
      }
    }
  }
  attr {
    key: "_output_shapes"
    value {
      list {
        shape {
        }
      }
    }
  }
}
node {
  name: "gradients/sub_2_grad/Shape"
  op: "Shape"
  input: "ExpandDims_2"
  attr {
    key: "T"
    value {
      type: DT_FLOAT
    }
  }
  attr {
    key: "_output_shapes"
    value {
      list {
        shape {
          dim {
            size: 3
          }
        }
      }
    }
  }
  attr {
    key: "out_type"
    value {
      type: DT_INT32
    }
  }
}
node {
  name: "gradients/sub_2_grad/Shape_1"
  op: "Shape"
  input: "ExpandDims_3"
  attr {
    key: "T"
    value {
      type: DT_FLOAT
    }
  }
  attr {
    key: "_output_shapes"
    value {
      list {
        shape {
          dim {
            size: 3
          }
        }
      }
    }
  }
  attr {
    key: "out_type"
    value {
      type: DT_INT32
    }
  }
}
node {
  name: "gradients/sub_2_grad/BroadcastGradientArgs"
  op: "BroadcastGradientArgs"
  input: "gradients/sub_2_grad/Shape"
  input: "gradients/sub_2_grad/Shape_1"
  attr {
    key: "T"
    value {
      type: DT_INT32
    }
  }
  attr {
    key: "_output_shapes"
    value {
      list {
        shape {
          dim {
            size: -1
          }
        }
        shape {
          dim {
            size: -1
          }
        }
      }
    }
  }
}
node {
  name: "gradients/sub_2_grad/Sum"
  op: "Sum"
  input: "gradients/add_2_grad/tuple/control_dependency"
  input: "gradients/sub_2_grad/BroadcastGradientArgs"
  attr {
    key: "T"
    value {
      type: DT_FLOAT
    }
  }
  attr {
    key: "Tidx"
    value {
      type: DT_INT32
    }
  }
  attr {
    key: "_output_shapes"
    value {
      list {
        shape {
          unknown_rank: true
        }
      }
    }
  }
  attr {
    key: "keep_dims"
    value {
      b: false
    }
  }
}
node {
  name: "gradients/sub_2_grad/Reshape"
  op: "Reshape"
  input: "gradients/sub_2_grad/Sum"
  input: "gradients/sub_2_grad/Shape"
  attr {
    key: "T"
    value {
      type: DT_FLOAT
    }
  }
  attr {
    key: "Tshape"
    value {
      type: DT_INT32
    }
  }
  attr {
    key: "_output_shapes"
    value {
      list {
        shape {
          dim {
            size: -1
          }
          dim {
            size: -1
          }
          dim {
            size: 1
          }
        }
      }
    }
  }
}
node {
  name: "gradients/sub_2_grad/Sum_1"
  op: "Sum"
  input: "gradients/add_2_grad/tuple/control_dependency"
  input: "gradients/sub_2_grad/BroadcastGradientArgs:1"
  attr {
    key: "T"
    value {
      type: DT_FLOAT
    }
  }
  attr {
    key: "Tidx"
    value {
      type: DT_INT32
    }
  }
  attr {
    key: "_output_shapes"
    value {
      list {
        shape {
          unknown_rank: true
        }
      }
    }
  }
  attr {
    key: "keep_dims"
    value {
      b: false
    }
  }
}
node {
  name: "gradients/sub_2_grad/Neg"
  op: "Neg"
  input: "gradients/sub_2_grad/Sum_1"
  attr {
    key: "T"
    value {
      type: DT_FLOAT
    }
  }
  attr {
    key: "_output_shapes"
    value {
      list {
        shape {
          unknown_rank: true
        }
      }
    }
  }
}
node {
  name: "gradients/sub_2_grad/Reshape_1"
  op: "Reshape"
  input: "gradients/sub_2_grad/Neg"
  input: "gradients/sub_2_grad/Shape_1"
  attr {
    key: "T"
    value {
      type: DT_FLOAT
    }
  }
  attr {
    key: "Tshape"
    value {
      type: DT_INT32
    }
  }
  attr {
    key: "_output_shapes"
    value {
      list {
        shape {
          dim {
            size: -1
          }
          dim {
            size: 1
          }
          dim {
            size: -1
          }
        }
      }
    }
  }
}
node {
  name: "gradients/sub_2_grad/tuple/group_deps"
  op: "NoOp"
  input: "^gradients/sub_2_grad/Reshape"
  input: "^gradients/sub_2_grad/Reshape_1"
}
node {
  name: "gradients/sub_2_grad/tuple/control_dependency"
  op: "Identity"
  input: "gradients/sub_2_grad/Reshape"
  input: "^gradients/sub_2_grad/tuple/group_deps"
  attr {
    key: "T"
    value {
      type: DT_FLOAT
    }
  }
  attr {
    key: "_class"
    value {
      list {
        s: "loc:@gradients/sub_2_grad/Reshape"
      }
    }
  }
  attr {
    key: "_output_shapes"
    value {
      list {
        shape {
          dim {
            size: -1
          }
          dim {
            size: -1
          }
          dim {
            size: 1
          }
        }
      }
    }
  }
}
node {
  name: "gradients/sub_2_grad/tuple/control_dependency_1"
  op: "Identity"
  input: "gradients/sub_2_grad/Reshape_1"
  input: "^gradients/sub_2_grad/tuple/group_deps"
  attr {
    key: "T"
    value {
      type: DT_FLOAT
    }
  }
  attr {
    key: "_class"
    value {
      list {
        s: "loc:@gradients/sub_2_grad/Reshape_1"
      }
    }
  }
  attr {
    key: "_output_shapes"
    value {
      list {
        shape {
          dim {
            size: -1
          }
          dim {
            size: 1
          }
          dim {
            size: -1
          }
        }
      }
    }
  }
}
node {
  name: "gradients/ExpandDims_2_grad/Shape"
  op: "Shape"
  input: "mul_2"
  attr {
    key: "T"
    value {
      type: DT_FLOAT
    }
  }
  attr {
    key: "_output_shapes"
    value {
      list {
        shape {
          dim {
            size: 2
          }
        }
      }
    }
  }
  attr {
    key: "out_type"
    value {
      type: DT_INT32
    }
  }
}
node {
  name: "gradients/ExpandDims_2_grad/Reshape"
  op: "Reshape"
  input: "gradients/sub_2_grad/tuple/control_dependency"
  input: "gradients/ExpandDims_2_grad/Shape"
  attr {
    key: "T"
    value {
      type: DT_FLOAT
    }
  }
  attr {
    key: "Tshape"
    value {
      type: DT_INT32
    }
  }
  attr {
    key: "_output_shapes"
    value {
      list {
        shape {
          dim {
            size: -1
          }
          dim {
            size: -1
          }
        }
      }
    }
  }
}
node {
  name: "gradients/ExpandDims_3_grad/Shape"
  op: "Shape"
  input: "mul_2"
  attr {
    key: "T"
    value {
      type: DT_FLOAT
    }
  }
  attr {
    key: "_output_shapes"
    value {
      list {
        shape {
          dim {
            size: 2
          }
        }
      }
    }
  }
  attr {
    key: "out_type"
    value {
      type: DT_INT32
    }
  }
}
node {
  name: "gradients/ExpandDims_3_grad/Reshape"
…
  input: "report_uninitialized_variables_1/IsVariableInitialized_9"
  input: "report_uninitialized_variables_1/IsVariableInitialized_10"
  input: "report_uninitialized_variables_1/IsVariableInitialized_11"
  input: "report_uninitialized_variables_1/IsVariableInitialized_12"
  input: "report_uninitialized_variables_1/IsVariableInitialized_13"
  input: "report_uninitialized_variables_1/IsVariableInitialized_14"
  input: "report_uninitialized_variables_1/IsVariableInitialized_15"
  input: "report_uninitialized_variables_1/IsVariableInitialized_16"
  input: "report_uninitialized_variables_1/IsVariableInitialized_17"
  input: "report_uninitialized_variables_1/IsVariableInitialized_18"
  input: "report_uninitialized_variables_1/IsVariableInitialized_19"
  input: "report_uninitialized_variables_1/IsVariableInitialized_20"
  device: "/device:CPU:0"
  attr {
    key: "N"
    value {
      i: 21
    }
  }
  attr {
    key: "T"
    value {
      type: DT_BOOL
    }
  }
  attr {
    key: "_output_shapes"
    value {
      list {
        shape {
          dim {
            size: 21
          }
        }
      }
    }
  }
  attr {
    key: "axis"
    value {
      i: 0
    }
  }
}
node {
  name: "report_uninitialized_variables_1/LogicalNot"
  op: "LogicalNot"
  input: "report_uninitialized_variables_1/stack"
  device: "/device:CPU:0"
  attr {
    key: "_output_shapes"
    value {
      list {
        shape {
          dim {
            size: 21
          }
        }
      }
    }
  }
}
node {
  name: "report_uninitialized_variables_1/Const"
  op: "Const"
  device: "/device:CPU:0"
  attr {
    key: "_output_shapes"
    value {
      list {
        shape {
          dim {
            size: 21
          }
        }
      }
    }
  }
  attr {
    key: "dtype"
    value {
      type: DT_STRING
    }
  }
  attr {
    key: "value"
    value {
      tensor {
        dtype: DT_STRING
        tensor_shape {
          dim {
            size: 21
          }
        }
        string_val: "global_step"
        string_val: "model/block_0/conv2d/kernel"
        string_val: "model/block_0/conv2d/bias"
        string_val: "model/block_1/conv2d/kernel"
        string_val: "model/block_1/conv2d/bias"
        string_val: "model/fc_1/dense/kernel"
        string_val: "model/fc_1/dense/bias"
        string_val: "beta1_power"
        string_val: "beta2_power"
        string_val: "model/block_0/conv2d/kernel/Adam"
        string_val: "model/block_0/conv2d/kernel/Adam_1"
        string_val: "model/block_0/conv2d/bias/Adam"
        string_val: "model/block_0/conv2d/bias/Adam_1"
        string_val: "model/block_1/conv2d/kernel/Adam"
        string_val: "model/block_1/conv2d/kernel/Adam_1"
        string_val: "model/block_1/conv2d/bias/Adam"
        string_val: "model/block_1/conv2d/bias/Adam_1"
        string_val: "model/fc_1/dense/kernel/Adam"
        string_val: "model/fc_1/dense/kernel/Adam_1"
        string_val: "model/fc_1/dense/bias/Adam"
        string_val: "model/fc_1/dense/bias/Adam_1"
      }
    }
  }
}
node {
  name: "report_uninitialized_variables_1/boolean_mask/Shape"
  op: "Const"
  device: "/device:CPU:0"
  attr {
    key: "_output_shapes"
    value {
      list {
        shape {
          dim {
            size: 1
          }
        }
      }
    }
  }
  attr {
    key: "dtype"
    value {
      type: DT_INT32
    }
  }
  attr {
    key: "value"
    value {
      tensor {
        dtype: DT_INT32
        tensor_shape {
          dim {
            size: 1
          }
        }
        int_val: 21
      }
    }
  }
}
node {
  name: "report_uninitialized_variables_1/boolean_mask/strided_slice/stack"
  op: "Const"
  device: "/device:CPU:0"
  attr {
    key: "_output_shapes"
    value {
      list {
        shape {
          dim {
            size: 1
          }
        }
      }
    }
  }
  attr {
    key: "dtype"
    value {
      type: DT_INT32
    }
  }
  attr {
    key: "value"
    value {
      tensor {
        dtype: DT_INT32
        tensor_shape {
          dim {
            size: 1
          }
        }
        int_val: 0
      }
    }
  }
}
node {
  name: "report_uninitialized_variables_1/boolean_mask/strided_slice/stack_1"
  op: "Const"
  device: "/device:CPU:0"
  attr {
    key: "_output_shapes"
    value {
      list {
        shape {
          dim {
            size: 1
          }
        }
      }
    }
  }
  attr {
    key: "dtype"
    value {
      type: DT_INT32
    }
  }
  attr {
    key: "value"
    value {
      tensor {
        dtype: DT_INT32
        tensor_shape {
          dim {
            size: 1
          }
        }
        int_val: 1
      }
    }
  }
}
node {
  name: "report_uninitialized_variables_1/boolean_mask/strided_slice/stack_2"
  op: "Const"
  device: "/device:CPU:0"
  attr {
    key: "_output_shapes"
    value {
      list {
        shape {
          dim {
            size: 1
          }
        }
      }
    }
  }
  attr {
    key: "dtype"
    value {
      type: DT_INT32
    }
  }
  attr {
    key: "value"
    value {
      tensor {
        dtype: DT_INT32
        tensor_shape {
          dim {
            size: 1
          }
        }
        int_val: 1
      }
    }
  }
}
node {
  name: "report_uninitialized_variables_1/boolean_mask/strided_slice"
  op: "StridedSlice"
  input: "report_uninitialized_variables_1/boolean_mask/Shape"
  input: "report_uninitialized_variables_1/boolean_mask/strided_slice/stack"
  input: "report_uninitialized_variables_1/boolean_mask/strided_slice/stack_1"
  input: "report_uninitialized_variables_1/boolean_mask/strided_slice/stack_2"
  device: "/device:CPU:0"
  attr {
    key: "Index"
    value {
      type: DT_INT32
    }
  }
  attr {
    key: "T"
    value {
      type: DT_INT32
    }
  }
  attr {
    key: "_output_shapes"
    value {
      list {
        shape {
          dim {
            size: 1
          }
        }
      }
    }
  }
  attr {
    key: "begin_mask"
    value {
      i: 0
    }
  }
  attr {
    key: "ellipsis_mask"
    value {
      i: 0
    }
  }
  attr {
    key: "end_mask"
    value {
      i: 0
    }
  }
  attr {
    key: "new_axis_mask"
    value {
      i: 0
    }
  }
  attr {
    key: "shrink_axis_mask"
    value {
      i: 0
    }
  }
}
node {
  name: "report_uninitialized_variables_1/boolean_mask/Prod/reduction_indices"
  op: "Const"
  device: "/device:CPU:0"
  attr {
    key: "_output_shapes"
    value {
      list {
        shape {
          dim {
            size: 1
          }
        }
      }
    }
  }
  attr {
    key: "dtype"
    value {
      type: DT_INT32
    }
  }
  attr {
    key: "value"
    value {
      tensor {
        dtype: DT_INT32
        tensor_shape {
          dim {
            size: 1
          }
        }
        int_val: 0
      }
    }
  }
}
node {
  name: "report_uninitialized_variables_1/boolean_mask/Prod"
  op: "Prod"
  input: "report_uninitialized_variables_1/boolean_mask/strided_slice"
  input: "report_uninitialized_variables_1/boolean_mask/Prod/reduction_indices"
  device: "/device:CPU:0"
  attr {
    key: "T"
    value {
      type: DT_INT32
    }
  }
  attr {
    key: "Tidx"
    value {
      type: DT_INT32
    }
  }
  attr {
    key: "_output_shapes"
    value {
      list {
        shape {
        }
      }
    }
  }
  attr {
    key: "keep_dims"
    value {
      b: false
    }
  }
}
node {
  name: "report_uninitialized_variables_1/boolean_mask/Shape_1"
  op: "Const"
  device: "/device:CPU:0"
  attr {
    key: "_output_shapes"
    value {
      list {
        shape {
          dim {
            size: 1
          }
        }
      }
    }
  }
  attr {
    key: "dtype"
    value {
      type: DT_INT32
    }
  }
  attr {
    key: "value"
    value {
      tensor {
        dtype: DT_INT32
        tensor_shape {
          dim {
            size: 1
          }
        }
        int_val: 21
      }
    }
  }
}
node {
  name: "report_uninitialized_variables_1/boolean_mask/strided_slice_1/stack"
  op: "Const"
  device: "/device:CPU:0"
  attr {
    key: "_output_shapes"
    value {
      list {
        shape {
          dim {
            size: 1
          }
        }
      }
    }
  }
  attr {
    key: "dtype"
    value {
      type: DT_INT32
    }
  }
  attr {
    key: "value"
    value {
      tensor {
        dtype: DT_INT32
        tensor_shape {
          dim {
            size: 1
          }
        }
        int_val: 0
      }
    }
  }
}
node {
  name: "report_uninitialized_variables_1/boolean_mask/strided_slice_1/stack_1"
  op: "Const"
  device: "/device:CPU:0"
  attr {
    key: "_output_shapes"
    value {
      list {
        shape {
          dim {
            size: 1
          }
        }
      }
    }
  }
  attr {
    key: "dtype"
    value {
      type: DT_INT32
    }
  }
  attr {
    key: "value"
    value {
      tensor {
        dtype: DT_INT32
        tensor_shape {
          dim {
            size: 1
          }
        }
        int_val: 0
      }
    }
  }
}
node {
  name: "report_uninitialized_variables_1/boolean_mask/strided_slice_1/stack_2"
  op: "Const"
  device: "/device:CPU:0"
  attr {
    key: "_output_shapes"
    value {
      list {
        shape {
          dim {
            size: 1
          }
        }
      }
    }
  }
  attr {
    key: "dtype"
    value {
      type: DT_INT32
    }
  }
  attr {
    key: "value"
    value {
      tensor {
        dtype: DT_INT32
        tensor_shape {
          dim {
            size: 1
          }
        }
        int_val: 1
      }
    }
  }
}
node {
  name: "report_uninitialized_variables_1/boolean_mask/strided_slice_1"
  op: "StridedSlice"
  input: "report_uninitialized_variables_1/boolean_mask/Shape_1"
  input: "report_uninitialized_variables_1/boolean_mask/strided_slice_1/stack"
  input: "report_uninitialized_variables_1/boolean_mask/strided_slice_1/stack_1"
  input: "report_uninitialized_variables_1/boolean_mask/strided_slice_1/stack_2"
  device: "/device:CPU:0"
  attr {
    key: "Index"
    value {
      type: DT_INT32
    }
  }
  attr {
    key: "T"
    value {
      type: DT_INT32
    }
  }
  attr {
    key: "_output_shapes"
    value {
      list {
        shape {
          dim {
          }
        }
      }
    }
  }
  attr {
    key: "begin_mask"
    value {
      i: 1
    }
  }
  attr {
    key: "ellipsis_mask"
    value {
      i: 0
    }
  }
  attr {
    key: "end_mask"
    value {
      i: 0
    }
  }
  attr {
    key: "new_axis_mask"
    value {
      i: 0
    }
  }
  attr {
    key: "shrink_axis_mask"
    value {
      i: 0
    }
  }
}
node {
  name: "report_uninitialized_variables_1/boolean_mask/Shape_2"
  op: "Const"
  device: "/device:CPU:0"
  attr {
    key: "_output_shapes"
    value {
      list {
        shape {
          dim {
            size: 1
          }
        }
      }
    }
  }
  attr {
    key: "dtype"
    value {
      type: DT_INT32
    }
  }
  attr {
    key: "value"
    value {
      tensor {
        dtype: DT_INT32
        tensor_shape {
          dim {
            size: 1
          }
        }
        int_val: 21
      }
    }
  }
}
node {
  name: "report_uninitialized_variables_1/boolean_mask/strided_slice_2/stack"
  op: "Const"
  device: "/device:CPU:0"
  attr {
    key: "_output_shapes"
    value {
      list {
        shape {
          dim {
            size: 1
          }
        }
      }
    }
  }
  attr {
    key: "dtype"
    value {
      type: DT_INT32
    }
  }
  attr {
    key: "value"
    value {
      tensor {
        dtype: DT_INT32
        tensor_shape {
          dim {
            size: 1
          }
        }
        int_val: 1
      }
    }
  }
}
node {
  name: "report_uninitialized_variables_1/boolean_mask/strided_slice_2/stack_1"
  op: "Const"
  device: "/device:CPU:0"
  attr {
    key: "_output_shapes"
    value {
      list {
        shape {
          dim {
            size: 1
          }
        }
      }
    }
  }
  attr {
    key: "dtype"
    value {
      type: DT_INT32
    }
  }
  attr {
    key: "value"
    value {
      tensor {
        dtype: DT_INT32
        tensor_shape {
          dim {
            size: 1
          }
        }
        int_val: 0
      }
    }
  }
}
node {
  name: "report_uninitialized_variables_1/boolean_mask/strided_slice_2/stack_2"
  op: "Const"
  device: "/device:CPU:0"
  attr {
    key: "_output_shapes"
    value {
      list {
        shape {
          dim {
            size: 1
          }
        }
      }
    }
  }
  attr {
    key: "dtype"
    value {
      type: DT_INT32
    }
  }
  attr {
    key: "value"
    value {
      tensor {
        dtype: DT_INT32
        tensor_shape {
          dim {
            size: 1
          }
        }
        int_val: 1
      }
    }
  }
}
node {
  name: "report_uninitialized_variables_1/boolean_mask/strided_slice_2"
  op: "StridedSlice"
  input: "report_uninitialized_variables_1/boolean_mask/Shape_2"
  input: "report_uninitialized_variables_1/boolean_mask/strided_slice_2/stack"
  input: "report_uninitialized_variables_1/boolean_mask/strided_slice_2/stack_1"
  input: "report_uninitialized_variables_1/boolean_mask/strided_slice_2/stack_2"
  device: "/device:CPU:0"
  attr {
    key: "Index"
    value {
      type: DT_INT32
    }
  }
  attr {
    key: "T"
    value {
      type: DT_INT32
    }
  }
  attr {
    key: "_output_shapes"
    value {
      list {
        shape {
          dim {
          }
        }
      }
    }
  }
  attr {
    key: "begin_mask"
    value {
      i: 0
    }
  }
  attr {
    key: "ellipsis_mask"
    value {
      i: 0
    }
  }
  attr {
    key: "end_mask"
    value {
      i: 1
    }
  }
  attr {
    key: "new_axis_mask"
    value {
      i: 0
    }
  }
  attr {
    key: "shrink_axis_mask"
    value {
      i: 0
    }
  }
}
node {
  name: "report_uninitialized_variables_1/boolean_mask/concat/values_1"
  op: "Pack"
  input: "report_uninitialized_variables_1/boolean_mask/Prod"
  device: "/device:CPU:0"
  attr {
    key: "N"
    value {
      i: 1
    }
  }
  attr {
    key: "T"
    value {
      type: DT_INT32
    }
  }
  attr {
    key: "_output_shapes"
    value {
      list {
        shape {
          dim {
            size: 1
          }
        }
      }
    }
  }
  attr {
    key: "axis"
    value {
      i: 0
    }
  }
}
node {
  name: "report_uninitialized_variables_1/boolean_mask/concat/axis"
  op: "Const"
  device: "/device:CPU:0"
  attr {
    key: "_output_shapes"
    value {
      list {
        shape {
        }
      }
    }
  }
  attr {
    key: "dtype"
    value {
      type: DT_INT32
    }
  }
  attr {
    key: "value"
    value {
      tensor {
        dtype: DT_INT32
        tensor_shape {
        }
        int_val: 0
      }
    }
  }
}
node {
  name: "report_uninitialized_variables_1/boolean_mask/concat"
  op: "ConcatV2"
  input: "report_uninitialized_variables_1/boolean_mask/strided_slice_1"
  input: "report_uninitialized_variables_1/boolean_mask/concat/values_1"
  input: "report_uninitialized_variables_1/boolean_mask/strided_slice_2"
  input: "report_uninitialized_variables_1/boolean_mask/concat/axis"
  device: "/device:CPU:0"
  attr {
    key: "N"
    value {
      i: 3
    }
  }
  attr {
    key: "T"
    value {
      type: DT_INT32
    }
  }
  attr {
    key: "Tidx"
    value {
      type: DT_INT32
    }
  }
  attr {
    key: "_output_shapes"
    value {
      list {
        shape {
          dim {
            size: 1
          }
        }
      }
    }
  }
}
node {
  name: "report_uninitialized_variables_1/boolean_mask/Reshape"
  op: "Reshape"
  input: "report_uninitialized_variables_1/Const"
  input: "report_uninitialized_variables_1/boolean_mask/concat"
  device: "/device:CPU:0"
  attr {
    key: "T"
    value {
      type: DT_STRING
    }
  }
  attr {
    key: "Tshape"
    value {
      type: DT_INT32
    }
  }
  attr {
    key: "_output_shapes"
    value {
      list {
        shape {
          dim {
            size: 21
          }
        }
      }
    }
  }
}
node {
  name: "report_uninitialized_variables_1/boolean_mask/Reshape_1/shape"
  op: "Const"
  device: "/device:CPU:0"
  attr {
    key: "_output_shapes"
    value {
      list {
        shape {
          dim {
            size: 1
          }
        }
      }
    }
  }
  attr {
    key: "dtype"
    value {
      type: DT_INT32
    }
  }
  attr {
    key: "value"
    value {
      tensor {
        dtype: DT_INT32
        tensor_shape {
          dim {
            size: 1
          }
        }
        int_val: -1
      }
    }
  }
}
node {
  name: "report_uninitialized_variables_1/boolean_mask/Reshape_1"
  op: "Reshape"
  input: "report_uninitialized_variables_1/LogicalNot"
  input: "report_uninitialized_variables_1/boolean_mask/Reshape_1/shape"
  device: "/device:CPU:0"
  attr {
    key: "T"
    value {
      type: DT_BOOL
    }
  }
  attr {
    key: "Tshape"
    value {
      type: DT_INT32
    }
  }
  attr {
    key: "_output_shapes"
    value {
      list {
        shape {
          dim {
            size: 21
          }
        }
      }
    }
  }
}
node {
  name: "report_uninitialized_variables_1/boolean_mask/Where"
  op: "Where"
  input: "report_uninitialized_variables_1/boolean_mask/Reshape_1"
  device: "/device:CPU:0"
  attr {
    key: "T"
    value {
      type: DT_BOOL
    }
  }
  attr {
    key: "_output_shapes"
    value {
      list {
        shape {
          dim {
            size: -1
          }
          dim {
            size: 1
          }
        }
      }
    }
  }
}
node {
  name: "report_uninitialized_variables_1/boolean_mask/Squeeze"
  op: "Squeeze"
  input: "report_uninitialized_variables_1/boolean_mask/Where"
  device: "/device:CPU:0"
  attr {
    key: "T"
    value {
      type: DT_INT64
    }
  }
  attr {
    key: "_output_shapes"
    value {
      list {
        shape {
          dim {
            size: -1
          }
        }
      }
    }
  }
  attr {
    key: "squeeze_dims"
    value {
      list {
        i: 1
      }
    }
  }
}
node {
  name: "report_uninitialized_variables_1/boolean_mask/GatherV2/axis"
  op: "Const"
  device: "/device:CPU:0"
  attr {
    key: "_output_shapes"
    value {
      list {
        shape {
        }
      }
    }
  }
  attr {
    key: "dtype"
    value {
      type: DT_INT32
    }
  }
  attr {
    key: "value"
    value {
      tensor {
        dtype: DT_INT32
        tensor_shape {
        }
        int_val: 0
      }
    }
  }
}
node {
  name: "report_uninitialized_variables_1/boolean_mask/GatherV2"
  op: "GatherV2"
  input: "report_uninitialized_variables_1/boolean_mask/Reshape"
  input: "report_uninitialized_variables_1/boolean_mask/Squeeze"
  input: "report_uninitialized_variables_1/boolean_mask/GatherV2/axis"
  device: "/device:CPU:0"
  attr {
    key: "Taxis"
    value {
      type: DT_INT32
    }
  }
  attr {
    key: "Tindices"
    value {
      type: DT_INT64
    }
  }
  attr {
    key: "Tparams"
    value {
      type: DT_STRING
    }
  }
  attr {
    key: "_output_shapes"
    value {
      list {
        shape {
          dim {
            size: -1
          }
        }
      }
    }
  }
}
node {
  name: "init_2"
  op: "NoOp"
  input: "^metrics/mean/count/Assign"
  input: "^metrics/mean/total/Assign"
  input: "^metrics/mean_1/count/Assign"
  input: "^metrics/mean_1/total/Assign"
}
node {
  name: "init_all_tables"
  op: "NoOp"
}
node {
  name: "init_3"
  op: "NoOp"
}
node {
  name: "group_deps_1"
  op: "NoOp"
  input: "^init_2"
  input: "^init_3"
  input: "^init_all_tables"
}
node {
  name: "Merge/MergeSummary"
  op: "MergeSummary"
  input: "embedding_mean_norm"
  input: "loss"
  input: "fraction_positive_triplets"
  input: "train_image"
  attr {
    key: "N"
    value {
      i: 4
    }
  }
  attr {
    key: "_output_shapes"
    value {
      list {
        shape {
        }
      }
    }
  }
}
node {
  name: "save/Const"
  op: "Const"
  attr {
    key: "_output_shapes"
    value {
      list {
        shape {
        }
      }
    }
  }
  attr {
    key: "dtype"
    value {
      type: DT_STRING
    }
  }
  attr {
    key: "value"
    value {
      tensor {
        dtype: DT_STRING
        tensor_shape {
        }
        string_val: "model"
      }
    }
  }
}
node {
  name: "save/StringJoin/inputs_1"
  op: "Const"
  attr {
    key: "_output_shapes"
    value {
      list {
        shape {
        }
      }
    }
  }
  attr {
    key: "dtype"
    value {
      type: DT_STRING
    }
  }
  attr {
    key: "value"
    value {
      tensor {
        dtype: DT_STRING
        tensor_shape {
        }
        string_val: "_temp_4376d97e4dbf430492b9625a084c04b8/part"
      }
    }
  }
}
node {
  name: "save/StringJoin"
  op: "StringJoin"
  input: "save/Const"
  input: "save/StringJoin/inputs_1"
  attr {
    key: "N"
    value {
      i: 2
    }
  }
  attr {
    key: "_output_shapes"
    value {
      list {
        shape {
        }
      }
    }
  }
  attr {
    key: "separator"
    value {
      s: ""
    }
  }
}
node {
  name: "save/num_shards"
  op: "Const"
  attr {
    key: "_output_shapes"
    value {
      list {
        shape {
        }
      }
    }
  }
  attr {
    key: "dtype"
    value {
      type: DT_INT32
    }
  }
  attr {
    key: "value"
    value {
      tensor {
        dtype: DT_INT32
        tensor_shape {
        }
        int_val: 1
      }
    }
  }
}
node {
  name: "save/ShardedFilename/shard"
  op: "Const"
  device: "/device:CPU:0"
  attr {
    key: "_output_shapes"
    value {
      list {
        shape {
        }
      }
    }
  }
  attr {
    key: "dtype"
    value {
      type: DT_INT32
    }
  }
  attr {
    key: "value"
    value {
      tensor {
        dtype: DT_INT32
        tensor_shape {
        }
        int_val: 0
      }
    }
  }
}
node {
  name: "save/ShardedFilename"
  op: "ShardedFilename"
  input: "save/StringJoin"
  input: "save/ShardedFilename/shard"
  input: "save/num_shards"
  device: "/device:CPU:0"
  attr {
    key: "_output_shapes"
    value {
      list {
        shape {
        }
      }
    }
  }
}
node {
  name: "save/SaveV2/tensor_names"
  op: "Const"
  device: "/device:CPU:0"
  attr {
    key: "_output_shapes"
    value {
      list {
        shape {
          dim {
            size: 21
          }
        }
      }
    }
  }
  attr {
    key: "dtype"
    value {
      type: DT_STRING
    }
  }
  attr {
    key: "value"
    value {
      tensor {
        dtype: DT_STRING
        tensor_shape {
          dim {
            size: 21
          }
        }
        string_val: "beta1_power"
        string_val: "beta2_power"
        string_val: "global_step"
        string_val: "model/block_0/conv2d/bias"
        string_val: "model/block_0/conv2d/bias/Adam"
        string_val: "model/block_0/conv2d/bias/Adam_1"
        string_val: "model/block_0/conv2d/kernel"
        string_val: "model/block_0/conv2d/kernel/Adam"
        string_val: "model/block_0/conv2d/kernel/Adam_1"
        string_val: "model/block_1/conv2d/bias"
        string_val: "model/block_1/conv2d/bias/Adam"
        string_val: "model/block_1/conv2d/bias/Adam_1"
        string_val: "model/block_1/conv2d/kernel"
        string_val: "model/block_1/conv2d/kernel/Adam"
        string_val: "model/block_1/conv2d/kernel/Adam_1"
        string_val: "model/fc_1/dense/bias"
        string_val: "model/fc_1/dense/bias/Adam"
        string_val: "model/fc_1/dense/bias/Adam_1"
        string_val: "model/fc_1/dense/kernel"
        string_val: "model/fc_1/dense/kernel/Adam"
        string_val: "model/fc_1/dense/kernel/Adam_1"
      }
    }
  }
}
node {
  name: "save/SaveV2/shape_and_slices"
  op: "Const"
  device: "/device:CPU:0"
  attr {
    key: "_output_shapes"
    value {
      list {
        shape {
          dim {
            size: 21
          }
        }
      }
    }
  }
  attr {
    key: "dtype"
    value {
      type: DT_STRING
    }
  }
  attr {
    key: "value"
    value {
      tensor {
        dtype: DT_STRING
        tensor_shape {
          dim {
            size: 21
          }
        }
        string_val: ""
        string_val: ""
        string_val: ""
        string_val: ""
        string_val: ""
        string_val: ""
        string_val: ""
        string_val: ""
        string_val: ""
        string_val: ""
        string_val: ""
        string_val: ""
        string_val: ""
        string_val: ""
        string_val: ""
        string_val: ""
        string_val: ""
        string_val: ""
        string_val: ""
        string_val: ""
        string_val: ""
      }
    }
  }
}
node {
  name: "save/SaveV2"
  op: "SaveV2"
  input: "save/ShardedFilename"
  input: "save/SaveV2/tensor_names"
  input: "save/SaveV2/shape_and_slices"
  input: "beta1_power"
  input: "beta2_power"
  input: "global_step"
  input: "model/block_0/conv2d/bias"
  input: "model/block_0/conv2d/bias/Adam"
  input: "model/block_0/conv2d/bias/Adam_1"
  input: "model/block_0/conv2d/kernel"
  input: "model/block_0/conv2d/kernel/Adam"
  input: "model/block_0/conv2d/kernel/Adam_1"
  input: "model/block_1/conv2d/bias"
  input: "model/block_1/conv2d/bias/Adam"
  input: "model/block_1/conv2d/bias/Adam_1"
  input: "model/block_1/conv2d/kernel"
  input: "model/block_1/conv2d/kernel/Adam"
  input: "model/block_1/conv2d/kernel/Adam_1"
  input: "model/fc_1/dense/bias"
  input: "model/fc_1/dense/bias/Adam"
  input: "model/fc_1/dense/bias/Adam_1"
  input: "model/fc_1/dense/kernel"
  input: "model/fc_1/dense/kernel/Adam"
  input: "model/fc_1/dense/kernel/Adam_1"
  device: "/device:CPU:0"
  attr {
    key: "dtypes"
    value {
      list {
        type: DT_FLOAT
        type: DT_FLOAT
        type: DT_INT64
        type: DT_FLOAT
        type: DT_FLOAT
        type: DT_FLOAT
        type: DT_FLOAT
        type: DT_FLOAT
        type: DT_FLOAT
        type: DT_FLOAT
        type: DT_FLOAT
        type: DT_FLOAT
        type: DT_FLOAT
        type: DT_FLOAT
        type: DT_FLOAT
        type: DT_FLOAT
        type: DT_FLOAT
        type: DT_FLOAT
        type: DT_FLOAT
        type: DT_FLOAT
        type: DT_FLOAT
      }
    }
  }
}
node {
  name: "save/control_dependency"
  op: "Identity"
  input: "save/ShardedFilename"
  input: "^save/SaveV2"
  device: "/device:CPU:0"
  attr {
    key: "T"
    value {
      type: DT_STRING
    }
  }
  attr {
    key: "_class"
    value {
      list {
        s: "loc:@save/ShardedFilename"
      }
    }
  }
  attr {
    key: "_output_shapes"
    value {
      list {
        shape {
        }
      }
    }
  }
}
node {
  name: "save/MergeV2Checkpoints/checkpoint_prefixes"
  op: "Pack"
  input: "save/ShardedFilename"
  input: "^save/control_dependency"
  device: "/device:CPU:0"
  attr {
    key: "N"
    value {
      i: 1
    }
  }
  attr {
    key: "T"
    value {
      type: DT_STRING
    }
  }
  attr {
    key: "_output_shapes"
    value {
      list {
        shape {
          dim {
            size: 1
          }
        }
      }
    }
  }
  attr {
    key: "axis"
    value {
      i: 0
    }
  }
}
node {
  name: "save/MergeV2Checkpoints"
  op: "MergeV2Checkpoints"
  input: "save/MergeV2Checkpoints/checkpoint_prefixes"
  input: "save/Const"
  device: "/device:CPU:0"
  attr {
    key: "delete_old_dirs"
    value {
      b: true
    }
  }
}
node {
  name: "save/Identity"
  op: "Identity"
  input: "save/Const"
  input: "^save/MergeV2Checkpoints"
  input: "^save/control_dependency"
  device: "/device:CPU:0"
  attr {
    key: "T"
    value {
      type: DT_STRING
    }
  }
  attr {
    key: "_output_shapes"
    value {
      list {
        shape {
        }
      }
    }
  }
}
node {
  name: "save/RestoreV2/tensor_names"
  op: "Const"
  device: "/device:CPU:0"
  attr {
    key: "_output_shapes"
    value {
      list {
        shape {
          dim {
            size: 21
          }
        }
      }
    }
  }
  attr {
    key: "dtype"
    value {
      type: DT_STRING
    }
  }
  attr {
    key: "value"
    value {
      tensor {
        dtype: DT_STRING
        tensor_shape {
          dim {
            size: 21
          }
        }
        string_val: "beta1_power"
        string_val: "beta2_power"
        string_val: "global_step"
        string_val: "model/block_0/conv2d/bias"
        string_val: "model/block_0/conv2d/bias/Adam"
        string_val: "model/block_0/conv2d/bias/Adam_1"
        string_val: "model/block_0/conv2d/kernel"
        string_val: "model/block_0/conv2d/kernel/Adam"
        string_val: "model/block_0/conv2d/kernel/Adam_1"
        string_val: "model/block_1/conv2d/bias"
        string_val: "model/block_1/conv2d/bias/Adam"
        string_val: "model/block_1/conv2d/bias/Adam_1"
        string_val: "model/block_1/conv2d/kernel"
        string_val: "model/block_1/conv2d/kernel/Adam"
        string_val: "model/block_1/conv2d/kernel/Adam_1"
        string_val: "model/fc_1/dense/bias"
        string_val: "model/fc_1/dense/bias/Adam"
        string_val: "model/fc_1/dense/bias/Adam_1"
        string_val: "model/fc_1/dense/kernel"
        string_val: "model/fc_1/dense/kernel/Adam"
        string_val: "model/fc_1/dense/kernel/Adam_1"
      }
    }
  }
}
node {
  name: "save/RestoreV2/shape_and_slices"
  op: "Const"
  device: "/device:CPU:0"
  attr {
    key: "_output_shapes"
    value {
      list {
        shape {
          dim {
            size: 21
          }
        }
      }
    }
  }
  attr {
    key: "dtype"
    value {
      type: DT_STRING
    }
  }
  attr {
    key: "value"
    value {
      tensor {
        dtype: DT_STRING
        tensor_shape {
          dim {
            size: 21
          }
        }
        string_val: ""
        string_val: ""
        string_val: ""
        string_val: ""
        string_val: ""
        string_val: ""
        string_val: ""
        string_val: ""
        string_val: ""
        string_val: ""
        string_val: ""
        string_val: ""
        string_val: ""
        string_val: ""
        string_val: ""
        string_val: ""
        string_val: ""
        string_val: ""
        string_val: ""
        string_val: ""
        string_val: ""
      }
    }
  }
}
node {
  name: "save/RestoreV2"
  op: "RestoreV2"
  input: "save/Const"
  input: "save/RestoreV2/tensor_names"
  input: "save/RestoreV2/shape_and_slices"
  device: "/device:CPU:0"
  attr {
    key: "_output_shapes"
    value {
      list {
        shape {
          unknown_rank: true
        }
        shape {
          unknown_rank: true
        }
        shape {
          unknown_rank: true
        }
        shape {
          unknown_rank: true
        }
        shape {
          unknown_rank: true
        }
        shape {
          unknown_rank: true
        }
        shape {
          unknown_rank: true
        }
        shape {
          unknown_rank: true
        }
        shape {
          unknown_rank: true
        }
        shape {
          unknown_rank: true
        }
        shape {
          unknown_rank: true
        }
        shape {
          unknown_rank: true
        }
        shape {
          unknown_rank: true
        }
        shape {
          unknown_rank: true
        }
        shape {
          unknown_rank: true
        }
        shape {
          unknown_rank: true
        }
        shape {
          unknown_rank: true
        }
        shape {
          unknown_rank: true
        }
        shape {
          unknown_rank: true
        }
        shape {
          unknown_rank: true
        }
        shape {
          unknown_rank: true
        }
      }
    }
  }
  attr {
    key: "dtypes"
    value {
      list {
        type: DT_FLOAT
        type: DT_FLOAT
        type: DT_INT64
        type: DT_FLOAT
        type: DT_FLOAT
        type: DT_FLOAT
        type: DT_FLOAT
        type: DT_FLOAT
        type: DT_FLOAT
        type: DT_FLOAT
        type: DT_FLOAT
        type: DT_FLOAT
        type: DT_FLOAT
        type: DT_FLOAT
        type: DT_FLOAT
        type: DT_FLOAT
        type: DT_FLOAT
        type: DT_FLOAT
        type: DT_FLOAT
        type: DT_FLOAT
        type: DT_FLOAT
      }
    }
  }
}
node {
  name: "save/Assign"
  op: "Assign"
  input: "beta1_power"
  input: "save/RestoreV2"
  attr {
    key: "T"
    value {
      type: DT_FLOAT
    }
  }
  attr {
    key: "_class"
    value {
      list {
        s: "loc:@model/block_0/conv2d/bias"
      }
    }
  }
  attr {
    key: "_output_shapes"
    value {
      list {
        shape {
        }
      }
    }
  }
  attr {
    key: "use_locking"
    value {
      b: true
    }
  }
  attr {
    key: "validate_shape"
    value {
      b: true
    }
  }
}
node {
  name: "save/Assign_1"
  op: "Assign"
  input: "beta2_power"
  input: "save/RestoreV2:1"
  attr {
    key: "T"
    value {
      type: DT_FLOAT
    }
  }
  attr {
    key: "_class"
    value {
      list {
        s: "loc:@model/block_0/conv2d/bias"
      }
    }
  }
  attr {
    key: "_output_shapes"
    value {
      list {
        shape {
        }
      }
    }
  }
  attr {
    key: "use_locking"
    value {
      b: true
    }
  }
  attr {
    key: "validate_shape"
    value {
      b: true
    }
  }
}
node {
  name: "save/Assign_2"
  op: "Assign"
  input: "global_step"
  input: "save/RestoreV2:2"
  attr {
    key: "T"
    value {
      type: DT_INT64
    }
  }
  attr {
    key: "_class"
    value {
      list {
        s: "loc:@global_step"
      }
    }
  }
  attr {
    key: "_output_shapes"
    value {
      list {
        shape {
        }
      }
    }
  }
  attr {
    key: "use_locking"
    value {
      b: true
    }
  }
  attr {
    key: "validate_shape"
    value {
      b: true
    }
  }
}
node {
  name: "save/Assign_3"
  op: "Assign"
  input: "model/block_0/conv2d/bias"
  input: "save/RestoreV2:3"
  attr {
    key: "T"
    value {
      type: DT_FLOAT
    }
  }
  attr {
    key: "_class"
    value {
      list {
        s: "loc:@model/block_0/conv2d/bias"
      }
    }
  }
  attr {
    key: "_output_shapes"
    value {
      list {
        shape {
          dim {
            size: 32
          }
        }
      }
    }
  }
  attr {
    key: "use_locking"
    value {
      b: true
    }
  }
  attr {
    key: "validate_shape"
    value {
      b: true
    }
  }
}
node {
  name: "save/Assign_4"
  op: "Assign"
  input: "model/block_0/conv2d/bias/Adam"
  input: "save/RestoreV2:4"
  attr {
    key: "T"
    value {
      type: DT_FLOAT
    }
  }
  attr {
    key: "_class"
    value {
      list {
        s: "loc:@model/block_0/conv2d/bias"
      }
    }
  }
  attr {
    key: "_output_shapes"
    value {
      list {
        shape {
          dim {
            size: 32
          }
        }
      }
    }
  }
  attr {
    key: "use_locking"
    value {
      b: true
    }
  }
  attr {
    key: "validate_shape"
    value {
      b: true
    }
  }
}
node {
  name: "save/Assign_5"
  op: "Assign"
  input: "model/block_0/conv2d/bias/Adam_1"
  input: "save/RestoreV2:5"
  attr {
    key: "T"
    value {
      type: DT_FLOAT
    }
  }
  attr {
    key: "_class"
    value {
      list {
        s: "loc:@model/block_0/conv2d/bias"
      }
    }
  }
  attr {
    key: "_output_shapes"
    value {
      list {
        shape {
          dim {
            size: 32
          }
        }
      }
    }
  }
  attr {
    key: "use_locking"
    value {
      b: true
    }
  }
  attr {
    key: "validate_shape"
    value {
      b: true
    }
  }
}
node {
  name: "save/Assign_6"
  op: "Assign"
  input: "model/block_0/conv2d/kernel"
  input: "save/RestoreV2:6"
  attr {
    key: "T"
    value {
      type: DT_FLOAT
    }
  }
  attr {
    key: "_class"
    value {
      list {
        s: "loc:@model/block_0/conv2d/kernel"
      }
    }
  }
  attr {
    key: "_output_shapes"
    value {
      list {
        shape {
          dim {
            size: 3
          }
          dim {
            size: 3
          }
          dim {
            size: 1
          }
          dim {
            size: 32
          }
        }
      }
    }
  }
  attr {
    key: "use_locking"
    value {
      b: true
    }
  }
  attr {
    key: "validate_shape"
    value {
      b: true
    }
  }
}
node {
  name: "save/Assign_7"
  op: "Assign"
  input: "model/block_0/conv2d/kernel/Adam"
  input: "save/RestoreV2:7"
  attr {
    key: "T"
    value {
      type: DT_FLOAT
    }
  }
  attr {
    key: "_class"
    value {
      list {
        s: "loc:@model/block_0/conv2d/kernel"
      }
    }
  }
  attr {
    key: "_output_shapes"
    value {
      list {
        shape {
          dim {
            size: 3
          }
          dim {
            size: 3
          }
          dim {
            size: 1
          }
          dim {
            size: 32
          }
        }
      }
    }
  }
  attr {
    key: "use_locking"
    value {
      b: true
    }
  }
  attr {
    key: "validate_shape"
    value {
      b: true
    }
  }
}
node {
  name: "save/Assign_8"
  op: "Assign"
  input: "model/block_0/conv2d/kernel/Adam_1"
  input: "save/RestoreV2:8"
  attr {
    key: "T"
    value {
      type: DT_FLOAT
    }
  }
  attr {
    key: "_class"
    value {
      list {
        s: "loc:@model/block_0/conv2d/kernel"
      }
    }
  }
  attr {
    key: "_output_shapes"
    value {
      list {
        shape {
          dim {
            size: 3
          }
          dim {
            size: 3
          }
          dim {
            size: 1
          }
          dim {
            size: 32
          }
        }
      }
    }
  }
  attr {
    key: "use_locking"
    value {
      b: true
    }
  }
  attr {
    key: "validate_shape"
    value {
      b: true
    }
  }
}
node {
  name: "save/Assign_9"
  op: "Assign"
  input: "model/block_1/conv2d/bias"
  input: "save/RestoreV2:9"
  attr {
    key: "T"
    value {
      type: DT_FLOAT
    }
  }
  attr {
    key: "_class"
    value {
      list {
        s: "loc:@model/block_1/conv2d/bias"
      }
    }
  }
  attr {
    key: "_output_shapes"
    value {
      list {
        shape {
          dim {
            size: 64
          }
        }
      }
    }
  }
  attr {
    key: "use_locking"
    value {
      b: true
    }
  }
  attr {
    key: "validate_shape"
    value {
      b: true
    }
  }
}
node {
  name: "save/Assign_10"
  op: "Assign"
  input: "model/block_1/conv2d/bias/Adam"
  input: "save/RestoreV2:10"
  attr {
    key: "T"
    value {
      type: DT_FLOAT
    }
  }
  attr {
    key: "_class"
    value {
      list {
        s: "loc:@model/block_1/conv2d/bias"
      }
    }
  }
  attr {
    key: "_output_shapes"
    value {
      list {
        shape {
          dim {
            size: 64
          }
        }
      }
    }
  }
  attr {
    key: "use_locking"
    value {
      b: true
    }
  }
  attr {
    key: "validate_shape"
    value {
      b: true
    }
  }
}
node {
  name: "save/Assign_11"
  op: "Assign"
  input: "model/block_1/conv2d/bias/Adam_1"
  input: "save/RestoreV2:11"
  attr {
    key: "T"
    value {
      type: DT_FLOAT
    }
  }
  attr {
    key: "_class"
    value {
      list {
        s: "loc:@model/block_1/conv2d/bias"
      }
    }
  }
  attr {
    key: "_output_shapes"
    value {
      list {
        shape {
          dim {
            size: 64
          }
        }
      }
    }
  }
  attr {
    key: "use_locking"
    value {
      b: true
    }
  }
  attr {
    key: "validate_shape"
    value {
      b: true
    }
  }
}
node {
  name: "save/Assign_12"
  op: "Assign"
  input: "model/block_1/conv2d/kernel"
  input: "save/RestoreV2:12"
  attr {
    key: "T"
    value {
      type: DT_FLOAT
    }
  }
  attr {
    key: "_class"
    value {
      list {
        s: "loc:@model/block_1/conv2d/kernel"
      }
    }
  }
  attr {
    key: "_output_shapes"
    value {
      list {
        shape {
          dim {
            size: 3
          }
          dim {
            size: 3
          }
          dim {
            size: 32
          }
          dim {
            size: 64
          }
        }
      }
    }
  }
  attr {
    key: "use_locking"
    value {
      b: true
    }
  }
  attr {
    key: "validate_shape"
    value {
      b: true
    }
  }
}
node {
  name: "save/Assign_13"
  op: "Assign"
  input: "model/block_1/conv2d/kernel/Adam"
  input: "save/RestoreV2:13"
  attr {
    key: "T"
    value {
      type: DT_FLOAT
    }
  }
  attr {
    key: "_class"
    value {
      list {
        s: "loc:@model/block_1/conv2d/kernel"
      }
    }
  }
  attr {
    key: "_output_shapes"
    value {
      list {
        shape {
          dim {
            size: 3
          }
          dim {
            size: 3
          }
          dim {
            size: 32
          }
          dim {
            size: 64
          }
        }
      }
    }
  }
  attr {
    key: "use_locking"
    value {
      b: true
    }
  }
  attr {
    key: "validate_shape"
    value {
      b: true
    }
  }
}
node {
  name: "save/Assign_14"
  op: "Assign"
  input: "model/block_1/conv2d/kernel/Adam_1"
  input: "save/RestoreV2:14"
  attr {
    key: "T"
    value {
      type: DT_FLOAT
    }
  }
  attr {
    key: "_class"
    value {
      list {
        s: "loc:@model/block_1/conv2d/kernel"
      }
    }
  }
  attr {
    key: "_output_shapes"
    value {
      list {
        shape {
          dim {
            size: 3
          }
          dim {
            size: 3
          }
          dim {
            size: 32
          }
          dim {
            size: 64
          }
        }
      }
    }
  }
  attr {
    key: "use_locking"
    value {
      b: true
    }
  }
  attr {
    key: "validate_shape"
    value {
      b: true
    }
  }
}
node {
  name: "save/Assign_15"
  op: "Assign"
  input: "model/fc_1/dense/bias"
  input: "save/RestoreV2:15"
  attr {
    key: "T"
    value {
      type: DT_FLOAT
    }
  }
  attr {
    key: "_class"
    value {
      list {
        s: "loc:@model/fc_1/dense/bias"
      }
    }
  }
  attr {
    key: "_output_shapes"
    value {
      list {
        shape {
          dim {
            size: 64
          }
        }
      }
    }
  }
  attr {
    key: "use_locking"
    value {
      b: true
    }
  }
  attr {
    key: "validate_shape"
    value {
      b: true
    }
  }
}
node {
  name: "save/Assign_16"
  op: "Assign"
  input: "model/fc_1/dense/bias/Adam"
  input: "save/RestoreV2:16"
  attr {
    key: "T"
    value {
      type: DT_FLOAT
    }
  }
  attr {
    key: "_class"
    value {
      list {
        s: "loc:@model/fc_1/dense/bias"
      }
    }
  }
  attr {
    key: "_output_shapes"
    value {
      list {
        shape {
          dim {
            size: 64
          }
        }
      }
    }
  }
  attr {
    key: "use_locking"
    value {
      b: true
    }
  }
  attr {
    key: "validate_shape"
    value {
      b: true
    }
  }
}
node {
  name: "save/Assign_17"
  op: "Assign"
  input: "model/fc_1/dense/bias/Adam_1"
  input: "save/RestoreV2:17"
  attr {
    key: "T"
    value {
      type: DT_FLOAT
    }
  }
  attr {
    key: "_class"
    value {
      list {
        s: "loc:@model/fc_1/dense/bias"
      }
    }
  }
  attr {
    key: "_output_shapes"
    value {
      list {
        shape {
          dim {
            size: 64
          }
        }
      }
    }
  }
  attr {
    key: "use_locking"
    value {
      b: true
    }
  }
  attr {
    key: "validate_shape"
    value {
      b: true
    }
  }
}
node {
  name: "save/Assign_18"
  op: "Assign"
  input: "model/fc_1/dense/kernel"
  input: "save/RestoreV2:18"
  attr {
    key: "T"
    value {
      type: DT_FLOAT
    }
  }
  attr {
    key: "_class"
    value {
      list {
        s: "loc:@model/fc_1/dense/kernel"
      }
    }
  }
  attr {
    key: "_output_shapes"
    value {
      list {
        shape {
          dim {
            size: 3136
          }
          dim {
            size: 64
          }
        }
      }
    }
  }
  attr {
    key: "use_locking"
    value {
      b: true
    }
  }
  attr {
    key: "validate_shape"
    value {
      b: true
    }
  }
}
node {
  name: "save/Assign_19"
  op: "Assign"
  input: "model/fc_1/dense/kernel/Adam"
  input: "save/RestoreV2:19"
  attr {
    key: "T"
    value {
      type: DT_FLOAT
    }
  }
  attr {
    key: "_class"
    value {
      list {
        s: "loc:@model/fc_1/dense/kernel"
      }
    }
  }
  attr {
    key: "_output_shapes"
    value {
      list {
        shape {
          dim {
            size: 3136
          }
          dim {
            size: 64
          }
        }
      }
    }
  }
  attr {
    key: "use_locking"
    value {
      b: true
    }
  }
  attr {
    key: "validate_shape"
    value {
      b: true
    }
  }
}
node {
  name: "save/Assign_20"
  op: "Assign"
  input: "model/fc_1/dense/kernel/Adam_1"
  input: "save/RestoreV2:20"
  attr {
    key: "T"
    value {
      type: DT_FLOAT
    }
  }
  attr {
    key: "_class"
    value {
      list {
        s: "loc:@model/fc_1/dense/kernel"
      }
    }
  }
  attr {
    key: "_output_shapes"
    value {
      list {
        shape {
          dim {
            size: 3136
          }
          dim {
            size: 64
          }
        }
      }
    }
  }
  attr {
    key: "use_locking"
    value {
      b: true
    }
  }
  attr {
    key: "validate_shape"
    value {
      b: true
    }
  }
}
node {
  name: "save/restore_shard"
  op: "NoOp"
  input: "^save/Assign"
  input: "^save/Assign_1"
  input: "^save/Assign_10"
  input: "^save/Assign_11"
  input: "^save/Assign_12"
  input: "^save/Assign_13"
  input: "^save/Assign_14"
  input: "^save/Assign_15"
  input: "^save/Assign_16"
  input: "^save/Assign_17"
  input: "^save/Assign_18"
  input: "^save/Assign_19"
  input: "^save/Assign_2"
  input: "^save/Assign_20"
  input: "^save/Assign_3"
  input: "^save/Assign_4"
  input: "^save/Assign_5"
  input: "^save/Assign_6"
  input: "^save/Assign_7"
  input: "^save/Assign_8"
  input: "^save/Assign_9"
}
node {
  name: "save/restore_all"
  op: "NoOp"
  input: "^save/restore_shard"
}
library {
  function {
    signature {
      name: "tf_data_structured_function_wrapper_PbI2H6gQI4M"
      input_arg {
        name: "arg0"
        type: DT_STRING
      }
      output_arg {
        name: "truediv"
        type: DT_FLOAT
      }
      description: "Wrapper for passing nested structures to and from tf.data functions."
    }
    node_def {
      name: "DecodeRaw"
      op: "DecodeRaw"
      input: "arg0"
      device: "/device:CPU:0"
      attr {
        key: "little_endian"
        value {
          b: true
        }
      }
      attr {
        key: "out_type"
        value {
          type: DT_UINT8
        }
      }
    }
    node_def {
      name: "Cast"
      op: "Cast"
      input: "DecodeRaw:output:0"
      device: "/device:CPU:0"
      attr {
        key: "DstT"
        value {
          type: DT_FLOAT
        }
      }
      attr {
        key: "SrcT"
        value {
          type: DT_UINT8
        }
      }
    }
    node_def {
      name: "Reshape/shape"
      op: "Const"
      device: "/device:CPU:0"
      attr {
        key: "dtype"
        value {
          type: DT_INT32
        }
      }
      attr {
        key: "value"
        value {
          tensor {
            dtype: DT_INT32
            tensor_shape {
              dim {
                size: 1
              }
            }
            int_val: 784
          }
        }
      }
    }
    node_def {
      name: "Reshape"
      op: "Reshape"
      input: "Cast:y:0"
      input: "Reshape/shape:output:0"
      device: "/device:CPU:0"
      attr {
        key: "T"
        value {
          type: DT_FLOAT
        }
      }
      attr {
        key: "Tshape"
        value {
          type: DT_INT32
        }
      }
    }
    node_def {
      name: "truediv/y"
      op: "Const"
      device: "/device:CPU:0"
      attr {
        key: "dtype"
        value {
          type: DT_FLOAT
        }
      }
      attr {
        key: "value"
        value {
          tensor {
            dtype: DT_FLOAT
            tensor_shape {
            }
            float_val: 255.0
          }
        }
      }
    }
    node_def {
      name: "truediv_0"
      op: "RealDiv"
      input: "Reshape:output:0"
      input: "truediv/y:output:0"
      device: "/device:CPU:0"
      attr {
        key: "T"
        value {
          type: DT_FLOAT
        }
      }
    }
    ret {
      key: "truediv"
      value: "truediv_0:z:0"
    }
  }
  function {
    signature {
      name: "tf_data_structured_function_wrapper_gB6yxMbOugc"
      input_arg {
        name: "arg0"
        type: DT_STRING
      }
      output_arg {
        name: "toint32"
        type: DT_INT32
      }
      description: "Wrapper for passing nested structures to and from tf.data functions."
    }
    node_def {
      name: "DecodeRaw"
      op: "DecodeRaw"
      input: "arg0"
      device: "/device:CPU:0"
      attr {
        key: "little_endian"
        value {
          b: true
        }
      }
      attr {
        key: "out_type"
        value {
          type: DT_UINT8
        }
      }
    }
    node_def {
      name: "Reshape/shape"
      op: "Const"
      device: "/device:CPU:0"
      attr {
        key: "dtype"
        value {
          type: DT_INT32
        }
      }
      attr {
        key: "value"
        value {
          tensor {
            dtype: DT_INT32
            tensor_shape {
              dim {
              }
            }
          }
        }
      }
    }
    node_def {
      name: "Reshape"
      op: "Reshape"
      input: "DecodeRaw:output:0"
      input: "Reshape/shape:output:0"
      device: "/device:CPU:0"
      attr {
        key: "T"
        value {
          type: DT_UINT8
        }
      }
      attr {
        key: "Tshape"
        value {
          type: DT_INT32
        }
      }
    }
    node_def {
      name: "ToInt32"
      op: "Cast"
      input: "Reshape:output:0"
      device: "/device:CPU:0"
      attr {
        key: "DstT"
        value {
          type: DT_INT32
        }
      }
      attr {
        key: "SrcT"
        value {
          type: DT_UINT8
        }
      }
    }
    ret {
      key: "toint32"
      value: "ToInt32:y:0"
    }
  }
}
versions {
  producer: 26
  min_consumer: 12
}
